…
I1216 16:45:30.624428 27805 net.cpp:322] The NetState phase (0) differed from the phase (1) specified by a rule in layer accuracy
I1216 16:45:30.624547 27805 net.cpp:58] Initializing net from parameters: 
name: "AlexNet"
state {
  phase: TRAIN
  level: 0
  stage: ""
}
layer {
  name: "data"
  type: "Data"
  top: "data"
  top: "label"
  include {
    phase: TRAIN
  }
  transform_param {
    mirror: true
    crop_size: 227
    mean_file: "/home/little_prince/SSD_disk/caffe_practise/Data/train_alex.binaryproto"
  }
  data_param {
    source: "./Data/train_lmdb_alex"
    batch_size: 32
    backend: LMDB
  }
}
layer {
  name: "conv1"
  type: "Convolution"
  bottom: "data"
  top: "conv1"
  param {
    lr_mult: 1
    decay_mult: 1
  }
  param {
    lr_mult: 2
    decay_mult: 0
  }
  convolution_param {
    num_output: 96
    kernel_size: 11
    stride: 4
    weight_filler {
      type: "gaussian"
      std: 0.01
    }
    bias_filler {
      type: "constant"
      value: 0
    }
  }
}
layer {
  name: "relu1"
  type: "ReLU"
  bottom: "conv1"
  top: "conv1"
}
layer {
  name: "norm1"
  type: "LRN"
  bottom: "conv1"
  top: "norm1"
  lrn_param {
    local_size: 5
    alpha: 0.0001
    beta: 0.75
  }
}
layer {
  name: "pool1"
  type: "Pooling"
  bottom: "norm1"
  top: "pool1"
  pooling_param {
    pool: MAX
    kernel_size: 3
    stride: 2
  }
}
layer {
  name: "conv2"
  type: "Convolution"
  bottom: "pool1"
  top: "conv2"
  param {
    lr_mult: 1
    decay_mult: 1
  }
  param {
    lr_mult: 2
    decay_mult: 0
  }
  convolution_param {
    num_output: 256
    pad: 2
    kernel_size: 5
    group: 2
    weight_filler {
      type: "gaussian"
      std: 0.01
    }
    bias_filler {
      type: "constant"
      value: 0.1
    }
  }
}
layer {
  name: "relu2"
  type: "ReLU"
  bottom: "conv2"
  top: "conv2"
}
layer {
  name: "norm2"
  type: "LRN"
  bottom: "conv2"
  top: "norm2"
  lrn_param {
    local_size: 5
    alpha: 0.0001
    beta: 0.75
  }
}
layer {
  name: "pool2"
  type: "Pooling"
  bottom: "norm2"
  top: "pool2"
  pooling_param {
    pool: MAX
    kernel_size: 3
    stride: 2
  }
}
layer {
  name: "conv3"
  type: "Convolution"
  bottom: "pool2"
  top: "conv3"
  param {
    lr_mult: 1
    decay_mult: 1
  }
  param {
    lr_mult: 2
    decay_mult: 0
  }
  convolution_param {
    num_output: 384
    pad: 1
    kernel_size: 3
    weight_filler {
      type: "gaussian"
      std: 0.01
    }
    bias_filler {
      type: "constant"
      value: 0
    }
  }
}
layer {
  name: "relu3"
  type: "ReLU"
  bottom: "conv3"
  top: "conv3"
}
layer {
  name: "conv4"
  type: "Convolution"
  bottom: "conv3"
  top: "conv4"
  param {
    lr_mult: 1
    decay_mult: 1
  }
  param {
    lr_mult: 2
    decay_mult: 0
  }
  convolution_param {
    num_output: 384
    pad: 1
    kernel_size: 3
    group: 2
    weight_filler {
      type: "gaussian"
      std: 0.01
    }
    bias_filler {
      type: "constant"
      value: 0.1
    }
  }
}
layer {
  name: "relu4"
  type: "ReLU"
  bottom: "conv4"
  top: "conv4"
}
layer {
  name: "conv5"
  type: "Convolution"
  bottom: "conv4"
  top: "conv5"
  param {
    lr_mult: 1
    decay_mult: 1
  }
  param {
    lr_mult: 2
    decay_mult: 0
  }
  convolution_param {
    num_output: 256
    pad: 1
    kernel_size: 3
    group: 2
    weight_filler {
      type: "gaussian"
      std: 0.01
    }
    bias_filler {
      type: "constant"
      value: 0.1
    }
  }
}
layer {
  name: "relu5"
  type: "ReLU"
  bottom: "conv5"
  top: "conv5"
}
layer {
  name: "pool5"
  type: "Pooling"
  bottom: "conv5"
  top: "pool5"
  pooling_param {
    pool: MAX
    kernel_size: 3
    stride: 2
  }
}
layer {
  name: "fc6"
  type: "InnerProduct"
  bottom: "pool5"
  top: "fc6"
  param {
    lr_mult: 1
    decay_mult: 1
  }
  param {
    lr_mult: 2
    decay_mult: 0
  }
  inner_product_param {
    num_output: 4096
    weight_filler {
      type: "gaussian"
      std: 0.005
    }
    bias_filler {
      type: "constant"
      value: 0.1
    }
  }
}
layer {
  name: "relu6"
  type: "ReLU"
  bottom: "fc6"
  top: "fc6"
}
layer {
  name: "drop6"
  type: "Dropout"
  bottom: "fc6"
  top: "fc6"
  dropout_param {
    dropout_ratio: 0.5
  }
}
layer {
  name: "fc7"
  type: "InnerProduct"
  bottom: "fc6"
  top: "fc7"
  param {
    lr_mult: 1
    decay_mult: 1
  }
  param {
    lr_mult: 2
    decay_mult: 0
  }
  inner_product_param {
    num_output: 4096
    weight_filler {
      type: "gaussian"
      std: 0.005
    }
    bias_filler {
      type: "constant"
      value: 0.1
    }
  }
}
layer {
  name: "relu7"
  type: "ReLU"
  bottom: "fc7"
  top: "fc7"
}
layer {
  name: "drop7"
  type: "Dropout"
  bottom: "fc7"
  top: "fc7"
  dropout_param {
    dropout_ratio: 0.5
  }
}
layer {
  name: "fc8"
  type: "InnerProduct"
  bottom: "fc7"
  top: "fc8"
  param {
    lr_mult: 1
    decay_mult: 1
  }
  param {
    lr_mult: 2
    decay_mult: 0
  }
  inner_product_param {
    num_output: 2
    weight_filler {
      type: "gaussian"
      std: 0.01
    }
    bias_filler {
      type: "constant"
      value: 0
    }
  }
}
layer {
  name: "loss"
  type: "SoftmaxWithLoss"
  bottom: "fc8"
  bottom: "label"
  top: "loss"
}
I1216 16:45:30.624809 27805 layer_factory.hpp:77] Creating layer data
I1216 16:45:30.624938 27805 net.cpp:100] Creating Layer data
I1216 16:45:30.624948 27805 net.cpp:408] data -> data
I1216 16:45:30.624970 27805 net.cpp:408] data -> label
I1216 16:45:30.624989 27805 data_transformer.cpp:27] Loading mean file from: /home/little_prince/SSD_disk/caffe_practise/Data/train_alex.binaryproto
I1216 16:45:30.625533 27818 db_lmdb.cpp:35] Opened lmdb ./Data/train_lmdb_alex
I1216 16:45:30.637039 27805 data_layer.cpp:41] output data size: 32,3,227,227
I1216 16:45:30.675580 27805 net.cpp:150] Setting up data
I1216 16:45:30.675760 27805 net.cpp:157] Top shape: 32 3 227 227 (4946784)
I1216 16:45:30.675817 27805 net.cpp:157] Top shape: 32 (32)
I1216 16:45:30.675869 27805 net.cpp:165] Memory required for data: 19787264
I1216 16:45:30.675930 27805 layer_factory.hpp:77] Creating layer conv1
I1216 16:45:30.676017 27805 net.cpp:100] Creating Layer conv1
I1216 16:45:30.676077 27805 net.cpp:434] conv1 <- data
I1216 16:45:30.676148 27805 net.cpp:408] conv1 -> conv1
I1216 16:45:31.497843 27805 net.cpp:150] Setting up conv1
I1216 16:45:31.497903 27805 net.cpp:157] Top shape: 32 96 55 55 (9292800)
I1216 16:45:31.497908 27805 net.cpp:165] Memory required for data: 56958464
I1216 16:45:31.497943 27805 layer_factory.hpp:77] Creating layer relu1
I1216 16:45:31.497964 27805 net.cpp:100] Creating Layer relu1
I1216 16:45:31.497972 27805 net.cpp:434] relu1 <- conv1
I1216 16:45:31.497980 27805 net.cpp:395] relu1 -> conv1 (in-place)
I1216 16:45:31.498582 27805 net.cpp:150] Setting up relu1
I1216 16:45:31.498602 27805 net.cpp:157] Top shape: 32 96 55 55 (9292800)
I1216 16:45:31.498607 27805 net.cpp:165] Memory required for data: 94129664
I1216 16:45:31.498612 27805 layer_factory.hpp:77] Creating layer norm1
I1216 16:45:31.498625 27805 net.cpp:100] Creating Layer norm1
I1216 16:45:31.498631 27805 net.cpp:434] norm1 <- conv1
I1216 16:45:31.498637 27805 net.cpp:408] norm1 -> norm1
I1216 16:45:31.499053 27805 net.cpp:150] Setting up norm1
I1216 16:45:31.499066 27805 net.cpp:157] Top shape: 32 96 55 55 (9292800)
I1216 16:45:31.499071 27805 net.cpp:165] Memory required for data: 131300864
I1216 16:45:31.499076 27805 layer_factory.hpp:77] Creating layer pool1
I1216 16:45:31.499085 27805 net.cpp:100] Creating Layer pool1
I1216 16:45:31.499122 27805 net.cpp:434] pool1 <- norm1
I1216 16:45:31.499130 27805 net.cpp:408] pool1 -> pool1
I1216 16:45:31.499164 27805 net.cpp:150] Setting up pool1
I1216 16:45:31.499171 27805 net.cpp:157] Top shape: 32 96 27 27 (2239488)
I1216 16:45:31.499176 27805 net.cpp:165] Memory required for data: 140258816
I1216 16:45:31.499179 27805 layer_factory.hpp:77] Creating layer conv2
I1216 16:45:31.499191 27805 net.cpp:100] Creating Layer conv2
I1216 16:45:31.499195 27805 net.cpp:434] conv2 <- pool1
I1216 16:45:31.499202 27805 net.cpp:408] conv2 -> conv2
I1216 16:45:31.504637 27805 net.cpp:150] Setting up conv2
I1216 16:45:31.504665 27805 net.cpp:157] Top shape: 32 256 27 27 (5971968)
I1216 16:45:31.504670 27805 net.cpp:165] Memory required for data: 164146688
I1216 16:45:31.504685 27805 layer_factory.hpp:77] Creating layer relu2
I1216 16:45:31.504699 27805 net.cpp:100] Creating Layer relu2
I1216 16:45:31.504705 27805 net.cpp:434] relu2 <- conv2
I1216 16:45:31.504711 27805 net.cpp:395] relu2 -> conv2 (in-place)
I1216 16:45:31.505120 27805 net.cpp:150] Setting up relu2
I1216 16:45:31.505133 27805 net.cpp:157] Top shape: 32 256 27 27 (5971968)
I1216 16:45:31.505137 27805 net.cpp:165] Memory required for data: 188034560
I1216 16:45:31.505141 27805 layer_factory.hpp:77] Creating layer norm2
I1216 16:45:31.505148 27805 net.cpp:100] Creating Layer norm2
I1216 16:45:31.505153 27805 net.cpp:434] norm2 <- conv2
I1216 16:45:31.505161 27805 net.cpp:408] norm2 -> norm2
I1216 16:45:31.505479 27805 net.cpp:150] Setting up norm2
I1216 16:45:31.505489 27805 net.cpp:157] Top shape: 32 256 27 27 (5971968)
I1216 16:45:31.505493 27805 net.cpp:165] Memory required for data: 211922432
I1216 16:45:31.505496 27805 layer_factory.hpp:77] Creating layer pool2
I1216 16:45:31.505506 27805 net.cpp:100] Creating Layer pool2
I1216 16:45:31.505511 27805 net.cpp:434] pool2 <- norm2
I1216 16:45:31.505518 27805 net.cpp:408] pool2 -> pool2
I1216 16:45:31.505547 27805 net.cpp:150] Setting up pool2
I1216 16:45:31.505553 27805 net.cpp:157] Top shape: 32 256 13 13 (1384448)
I1216 16:45:31.505558 27805 net.cpp:165] Memory required for data: 217460224
I1216 16:45:31.505560 27805 layer_factory.hpp:77] Creating layer conv3
I1216 16:45:31.505570 27805 net.cpp:100] Creating Layer conv3
I1216 16:45:31.505574 27805 net.cpp:434] conv3 <- pool2
I1216 16:45:31.505581 27805 net.cpp:408] conv3 -> conv3
I1216 16:45:31.514564 27805 net.cpp:150] Setting up conv3
I1216 16:45:31.514607 27805 net.cpp:157] Top shape: 32 384 13 13 (2076672)
I1216 16:45:31.514612 27805 net.cpp:165] Memory required for data: 225766912
I1216 16:45:31.514632 27805 layer_factory.hpp:77] Creating layer relu3
I1216 16:45:31.514645 27805 net.cpp:100] Creating Layer relu3
I1216 16:45:31.514650 27805 net.cpp:434] relu3 <- conv3
I1216 16:45:31.514658 27805 net.cpp:395] relu3 -> conv3 (in-place)
I1216 16:45:31.515007 27805 net.cpp:150] Setting up relu3
I1216 16:45:31.515018 27805 net.cpp:157] Top shape: 32 384 13 13 (2076672)
I1216 16:45:31.515022 27805 net.cpp:165] Memory required for data: 234073600
I1216 16:45:31.515027 27805 layer_factory.hpp:77] Creating layer conv4
I1216 16:45:31.515038 27805 net.cpp:100] Creating Layer conv4
I1216 16:45:31.515043 27805 net.cpp:434] conv4 <- conv3
I1216 16:45:31.515050 27805 net.cpp:408] conv4 -> conv4
I1216 16:45:31.525223 27805 net.cpp:150] Setting up conv4
I1216 16:45:31.525269 27805 net.cpp:157] Top shape: 32 384 13 13 (2076672)
I1216 16:45:31.525271 27805 net.cpp:165] Memory required for data: 242380288
I1216 16:45:31.525285 27805 layer_factory.hpp:77] Creating layer relu4
I1216 16:45:31.525297 27805 net.cpp:100] Creating Layer relu4
I1216 16:45:31.525302 27805 net.cpp:434] relu4 <- conv4
I1216 16:45:31.525311 27805 net.cpp:395] relu4 -> conv4 (in-place)
I1216 16:45:31.525799 27805 net.cpp:150] Setting up relu4
I1216 16:45:31.525818 27805 net.cpp:157] Top shape: 32 384 13 13 (2076672)
I1216 16:45:31.525822 27805 net.cpp:165] Memory required for data: 250686976
I1216 16:45:31.525827 27805 layer_factory.hpp:77] Creating layer conv5
I1216 16:45:31.525848 27805 net.cpp:100] Creating Layer conv5
I1216 16:45:31.525897 27805 net.cpp:434] conv5 <- conv4
I1216 16:45:31.525909 27805 net.cpp:408] conv5 -> conv5
I1216 16:45:31.534111 27805 net.cpp:150] Setting up conv5
I1216 16:45:31.534162 27805 net.cpp:157] Top shape: 32 256 13 13 (1384448)
I1216 16:45:31.534168 27805 net.cpp:165] Memory required for data: 256224768
I1216 16:45:31.534191 27805 layer_factory.hpp:77] Creating layer relu5
I1216 16:45:31.534206 27805 net.cpp:100] Creating Layer relu5
I1216 16:45:31.534211 27805 net.cpp:434] relu5 <- conv5
I1216 16:45:31.534220 27805 net.cpp:395] relu5 -> conv5 (in-place)
I1216 16:45:31.534662 27805 net.cpp:150] Setting up relu5
I1216 16:45:31.534674 27805 net.cpp:157] Top shape: 32 256 13 13 (1384448)
I1216 16:45:31.534679 27805 net.cpp:165] Memory required for data: 261762560
I1216 16:45:31.534683 27805 layer_factory.hpp:77] Creating layer pool5
I1216 16:45:31.534691 27805 net.cpp:100] Creating Layer pool5
I1216 16:45:31.534708 27805 net.cpp:434] pool5 <- conv5
I1216 16:45:31.534718 27805 net.cpp:408] pool5 -> pool5
I1216 16:45:31.534754 27805 net.cpp:150] Setting up pool5
I1216 16:45:31.534762 27805 net.cpp:157] Top shape: 32 256 6 6 (294912)
I1216 16:45:31.534766 27805 net.cpp:165] Memory required for data: 262942208
I1216 16:45:31.534770 27805 layer_factory.hpp:77] Creating layer fc6
I1216 16:45:31.534780 27805 net.cpp:100] Creating Layer fc6
I1216 16:45:31.534785 27805 net.cpp:434] fc6 <- pool5
I1216 16:45:31.534790 27805 net.cpp:408] fc6 -> fc6
I1216 16:45:31.858678 27805 net.cpp:150] Setting up fc6
I1216 16:45:31.858708 27805 net.cpp:157] Top shape: 32 4096 (131072)
I1216 16:45:31.858714 27805 net.cpp:165] Memory required for data: 263466496
I1216 16:45:31.858726 27805 layer_factory.hpp:77] Creating layer relu6
I1216 16:45:31.858736 27805 net.cpp:100] Creating Layer relu6
I1216 16:45:31.858741 27805 net.cpp:434] relu6 <- fc6
I1216 16:45:31.858749 27805 net.cpp:395] relu6 -> fc6 (in-place)
I1216 16:45:31.859264 27805 net.cpp:150] Setting up relu6
I1216 16:45:31.859275 27805 net.cpp:157] Top shape: 32 4096 (131072)
I1216 16:45:31.859279 27805 net.cpp:165] Memory required for data: 263990784
I1216 16:45:31.859284 27805 layer_factory.hpp:77] Creating layer drop6
I1216 16:45:31.859290 27805 net.cpp:100] Creating Layer drop6
I1216 16:45:31.859294 27805 net.cpp:434] drop6 <- fc6
I1216 16:45:31.859302 27805 net.cpp:395] drop6 -> fc6 (in-place)
I1216 16:45:31.859333 27805 net.cpp:150] Setting up drop6
I1216 16:45:31.859339 27805 net.cpp:157] Top shape: 32 4096 (131072)
I1216 16:45:31.859344 27805 net.cpp:165] Memory required for data: 264515072
I1216 16:45:31.859347 27805 layer_factory.hpp:77] Creating layer fc7
I1216 16:45:31.859354 27805 net.cpp:100] Creating Layer fc7
I1216 16:45:31.859359 27805 net.cpp:434] fc7 <- fc6
I1216 16:45:31.859365 27805 net.cpp:408] fc7 -> fc7
I1216 16:45:31.996521 27805 net.cpp:150] Setting up fc7
I1216 16:45:31.996546 27805 net.cpp:157] Top shape: 32 4096 (131072)
I1216 16:45:31.996551 27805 net.cpp:165] Memory required for data: 265039360
I1216 16:45:31.996562 27805 layer_factory.hpp:77] Creating layer relu7
I1216 16:45:31.996572 27805 net.cpp:100] Creating Layer relu7
I1216 16:45:31.996578 27805 net.cpp:434] relu7 <- fc7
I1216 16:45:31.996587 27805 net.cpp:395] relu7 -> fc7 (in-place)
I1216 16:45:31.997114 27805 net.cpp:150] Setting up relu7
I1216 16:45:31.997125 27805 net.cpp:157] Top shape: 32 4096 (131072)
I1216 16:45:31.997130 27805 net.cpp:165] Memory required for data: 265563648
I1216 16:45:31.997135 27805 layer_factory.hpp:77] Creating layer drop7
I1216 16:45:31.997143 27805 net.cpp:100] Creating Layer drop7
I1216 16:45:31.997148 27805 net.cpp:434] drop7 <- fc7
I1216 16:45:31.997155 27805 net.cpp:395] drop7 -> fc7 (in-place)
I1216 16:45:31.997179 27805 net.cpp:150] Setting up drop7
I1216 16:45:31.997185 27805 net.cpp:157] Top shape: 32 4096 (131072)
I1216 16:45:31.997189 27805 net.cpp:165] Memory required for data: 266087936
I1216 16:45:31.997193 27805 layer_factory.hpp:77] Creating layer fc8
I1216 16:45:31.997200 27805 net.cpp:100] Creating Layer fc8
I1216 16:45:31.997223 27805 net.cpp:434] fc8 <- fc7
I1216 16:45:31.997231 27805 net.cpp:408] fc8 -> fc8
I1216 16:45:31.997359 27805 net.cpp:150] Setting up fc8
I1216 16:45:31.997364 27805 net.cpp:157] Top shape: 32 2 (64)
I1216 16:45:31.997370 27805 net.cpp:165] Memory required for data: 266088192
I1216 16:45:31.997375 27805 layer_factory.hpp:77] Creating layer loss
I1216 16:45:31.997381 27805 net.cpp:100] Creating Layer loss
I1216 16:45:31.997385 27805 net.cpp:434] loss <- fc8
I1216 16:45:31.997390 27805 net.cpp:434] loss <- label
I1216 16:45:31.997398 27805 net.cpp:408] loss -> loss
I1216 16:45:31.997411 27805 layer_factory.hpp:77] Creating layer loss
…
I1216 16:45:31.998250 27805 solver.cpp:196] Creating test net (#0) specified by net file: ./models/bvlc_alexnet/train_val.prototxt
I1216 16:45:31.998276 27805 net.cpp:322] The NetState phase (1) differed from the phase (0) specified by a rule in layer data
I1216 16:45:31.998401 27805 net.cpp:58] Initializing net from parameters: 
name: "AlexNet"
state {
  phase: TEST
}
layer {
  name: "data"
  type: "Data"
  top: "data"
  top: "label"
  include {
    phase: TEST
  }
  transform_param {
    mirror: false
    crop_size: 227
    mean_value: 104
    mean_value: 117
    mean_value: 123
  }
  data_param {
    source: "./Data/val_lmdb_alex"
    batch_size: 32
    backend: LMDB
  }
}
layer {
  name: "conv1"
  type: "Convolution"
  bottom: "data"
  top: "conv1"
  param {
    lr_mult: 1
    decay_mult: 1
  }
  param {
    lr_mult: 2
    decay_mult: 0
  }
  convolution_param {
    num_output: 96
    kernel_size: 11
    stride: 4
    weight_filler {
      type: "gaussian"
      std: 0.01
    }
    bias_filler {
      type: "constant"
      value: 0
    }
  }
}
layer {
  name: "relu1"
  type: "ReLU"
  bottom: "conv1"
  top: "conv1"
}
layer {
  name: "norm1"
  type: "LRN"
  bottom: "conv1"
  top: "norm1"
  lrn_param {
    local_size: 5
    alpha: 0.0001
    beta: 0.75
  }
}
layer {
  name: "pool1"
  type: "Pooling"
  bottom: "norm1"
  top: "pool1"
  pooling_param {
    pool: MAX
    kernel_size: 3
    stride: 2
  }
}
layer {
  name: "conv2"
  type: "Convolution"
  bottom: "pool1"
  top: "conv2"
  param {
    lr_mult: 1
    decay_mult: 1
  }
  param {
    lr_mult: 2
    decay_mult: 0
  }
  convolution_param {
    num_output: 256
    pad: 2
    kernel_size: 5
    group: 2
    weight_filler {
      type: "gaussian"
      std: 0.01
    }
    bias_filler {
      type: "constant"
      value: 0.1
    }
  }
}
layer {
  name: "relu2"
  type: "ReLU"
  bottom: "conv2"
  top: "conv2"
}
layer {
  name: "norm2"
  type: "LRN"
  bottom: "conv2"
  top: "norm2"
  lrn_param {
    local_size: 5
    alpha: 0.0001
    beta: 0.75
  }
}
layer {
  name: "pool2"
  type: "Pooling"
  bottom: "norm2"
  top: "pool2"
  pooling_param {
    pool: MAX
    kernel_size: 3
    stride: 2
  }
}
layer {
  name: "conv3"
  type: "Convolution"
  bottom: "pool2"
  top: "conv3"
  param {
    lr_mult: 1
    decay_mult: 1
  }
  param {
    lr_mult: 2
    decay_mult: 0
  }
  convolution_param {
    num_output: 384
    pad: 1
    kernel_size: 3
    weight_filler {
      type: "gaussian"
      std: 0.01
    }
    bias_filler {
      type: "constant"
      value: 0
    }
  }
}
layer {
  name: "relu3"
  type: "ReLU"
  bottom: "conv3"
  top: "conv3"
}
layer {
  name: "conv4"
  type: "Convolution"
  bottom: "conv3"
  top: "conv4"
  param {
    lr_mult: 1
    decay_mult: 1
  }
  param {
    lr_mult: 2
    decay_mult: 0
  }
  convolution_param {
    num_output: 384
    pad: 1
    kernel_size: 3
    group: 2
    weight_filler {
      type: "gaussian"
      std: 0.01
    }
    bias_filler {
      type: "constant"
      value: 0.1
    }
  }
}
layer {
  name: "relu4"
  type: "ReLU"
  bottom: "conv4"
  top: "conv4"
}
layer {
  name: "conv5"
  type: "Convolution"
  bottom: "conv4"
  top: "conv5"
  param {
    lr_mult: 1
    decay_mult: 1
  }
  param {
    lr_mult: 2
    decay_mult: 0
  }
  convolution_param {
    num_output: 256
    pad: 1
    kernel_size: 3
    group: 2
    weight_filler {
      type: "gaussian"
      std: 0.01
    }
    bias_filler {
      type: "constant"
      value: 0.1
    }
  }
}
layer {
  name: "relu5"
  type: "ReLU"
  bottom: "conv5"
  top: "conv5"
}
layer {
  name: "pool5"
  type: "Pooling"
  bottom: "conv5"
  top: "pool5"
  pooling_param {
    pool: MAX
    kernel_size: 3
    stride: 2
  }
}
layer {
  name: "fc6"
  type: "InnerProduct"
  bottom: "pool5"
  top: "fc6"
  param {
    lr_mult: 1
    decay_mult: 1
  }
  param {
    lr_mult: 2
    decay_mult: 0
  }
  inner_product_param {
    num_output: 4096
    weight_filler {
      type: "gaussian"
      std: 0.005
    }
    bias_filler {
      type: "constant"
      value: 0.1
    }
  }
}
layer {
  name: "relu6"
  type: "ReLU"
  bottom: "fc6"
  top: "fc6"
}
layer {
  name: "drop6"
  type: "Dropout"
  bottom: "fc6"
  top: "fc6"
  dropout_param {
    dropout_ratio: 0.5
  }
}
layer {
  name: "fc7"
  type: "InnerProduct"
  bottom: "fc6"
  top: "fc7"
  param {
    lr_mult: 1
    decay_mult: 1
  }
  param {
    lr_mult: 2
    decay_mult: 0
  }
  inner_product_param {
    num_output: 4096
    weight_filler {
      type: "gaussian"
      std: 0.005
    }
    bias_filler {
      type: "constant"
      value: 0.1
    }
  }
}
layer {
  name: "relu7"
  type: "ReLU"
  bottom: "fc7"
  top: "fc7"
}
layer {
  name: "drop7"
  type: "Dropout"
  bottom: "fc7"
  top: "fc7"
  dropout_param {
    dropout_ratio: 0.5
  }
}
layer {
  name: "fc8"
  type: "InnerProduct"
  bottom: "fc7"
  top: "fc8"
  param {
    lr_mult: 1
    decay_mult: 1
  }
  param {
    lr_mult: 2
    decay_mult: 0
  }
  inner_product_param {
    num_output: 2
    weight_filler {
      type: "gaussian"
      std: 0.01
    }
    bias_filler {
      type: "constant"
      value: 0
    }
  }
}
layer {
  name: "accuracy"
  type: "Accuracy"
  bottom: "fc8"
  bottom: "label"
  top: "accuracy"
  include {
    phase: TEST
  }
}
layer {
  name: "loss"
  type: "SoftmaxWithLoss"
  bottom: "fc8"
  bottom: "label"
  top: "loss"
}
I1216 16:45:31.998652 27805 layer_factory.hpp:77] Creating layer data
I1216 16:45:31.998775 27805 net.cpp:100] Creating Layer data
I1216 16:45:31.998783 27805 net.cpp:408] data -> data
I1216 16:45:31.998792 27805 net.cpp:408] data -> label
I1216 16:45:31.999259 27825 db_lmdb.cpp:35] Opened lmdb ./Data/val_lmdb_alex
I1216 16:45:31.999469 27805 data_layer.cpp:41] output data size: 32,3,227,227
I1216 16:45:32.030964 27805 net.cpp:150] Setting up data
I1216 16:45:32.031000 27805 net.cpp:157] Top shape: 32 3 227 227 (4946784)
I1216 16:45:32.031005 27805 net.cpp:157] Top shape: 32 (32)
I1216 16:45:32.031009 27805 net.cpp:165] Memory required for data: 19787264
I1216 16:45:32.031016 27805 layer_factory.hpp:77] Creating layer label_data_1_split
I1216 16:45:32.031033 27805 net.cpp:100] Creating Layer label_data_1_split
I1216 16:45:32.031036 27805 net.cpp:434] label_data_1_split <- label
I1216 16:45:32.031045 27805 net.cpp:408] label_data_1_split -> label_data_1_split_0
I1216 16:45:32.031056 27805 net.cpp:408] label_data_1_split -> label_data_1_split_1
I1216 16:45:32.031116 27805 net.cpp:150] Setting up label_data_1_split
I1216 16:45:32.031122 27805 net.cpp:157] Top shape: 32 (32)
I1216 16:45:32.031127 27805 net.cpp:157] Top shape: 32 (32)
I1216 16:45:32.031129 27805 net.cpp:165] Memory required for data: 19787520
I1216 16:45:32.031133 27805 layer_factory.hpp:77] Creating layer conv1
I1216 16:45:32.031147 27805 net.cpp:100] Creating Layer conv1
I1216 16:45:32.031152 27805 net.cpp:434] conv1 <- data
I1216 16:45:32.031158 27805 net.cpp:408] conv1 -> conv1
I1216 16:45:32.035743 27805 net.cpp:150] Setting up conv1
I1216 16:45:32.036769 27805 net.cpp:157] Top shape: 32 96 55 55 (9292800)
I1216 16:45:32.036824 27805 net.cpp:165] Memory required for data: 56958720
I1216 16:45:32.036877 27805 layer_factory.hpp:77] Creating layer relu1
I1216 16:45:32.036932 27805 net.cpp:100] Creating Layer relu1
I1216 16:45:32.036974 27805 net.cpp:434] relu1 <- conv1
I1216 16:45:32.037015 27805 net.cpp:395] relu1 -> conv1 (in-place)
I1216 16:45:32.038321 27805 net.cpp:150] Setting up relu1
I1216 16:45:32.038409 27805 net.cpp:157] Top shape: 32 96 55 55 (9292800)
I1216 16:45:32.038434 27805 net.cpp:165] Memory required for data: 94129920
I1216 16:45:32.038470 27805 layer_factory.hpp:77] Creating layer norm1
I1216 16:45:32.038522 27805 net.cpp:100] Creating Layer norm1
I1216 16:45:32.038558 27805 net.cpp:434] norm1 <- conv1
I1216 16:45:32.038589 27805 net.cpp:408] norm1 -> norm1
I1216 16:45:32.039386 27805 net.cpp:150] Setting up norm1
I1216 16:45:32.039638 27805 net.cpp:157] Top shape: 32 96 55 55 (9292800)
I1216 16:45:32.039717 27805 net.cpp:165] Memory required for data: 131301120
I1216 16:45:32.040056 27805 layer_factory.hpp:77] Creating layer pool1
I1216 16:45:32.040158 27805 net.cpp:100] Creating Layer pool1
I1216 16:45:32.040244 27805 net.cpp:434] pool1 <- norm1
I1216 16:45:32.040343 27805 net.cpp:408] pool1 -> pool1
I1216 16:45:32.040562 27805 net.cpp:150] Setting up pool1
I1216 16:45:32.040652 27805 net.cpp:157] Top shape: 32 96 27 27 (2239488)
I1216 16:45:32.041013 27805 net.cpp:165] Memory required for data: 140259072
I1216 16:45:32.041096 27805 layer_factory.hpp:77] Creating layer conv2
I1216 16:45:32.041203 27805 net.cpp:100] Creating Layer conv2
I1216 16:45:32.041280 27805 net.cpp:434] conv2 <- pool1
I1216 16:45:32.041360 27805 net.cpp:408] conv2 -> conv2
I1216 16:45:32.057519 27805 net.cpp:150] Setting up conv2
I1216 16:45:32.058290 27805 net.cpp:157] Top shape: 32 256 27 27 (5971968)
I1216 16:45:32.058372 27805 net.cpp:165] Memory required for data: 164146944
I1216 16:45:32.058468 27805 layer_factory.hpp:77] Creating layer relu2
I1216 16:45:32.058554 27805 net.cpp:100] Creating Layer relu2
I1216 16:45:32.058611 27805 net.cpp:434] relu2 <- conv2
I1216 16:45:32.058667 27805 net.cpp:395] relu2 -> conv2 (in-place)
I1216 16:45:32.059382 27805 net.cpp:150] Setting up relu2
I1216 16:45:32.059497 27805 net.cpp:157] Top shape: 32 256 27 27 (5971968)
I1216 16:45:32.059551 27805 net.cpp:165] Memory required for data: 188034816
I1216 16:45:32.059645 27805 layer_factory.hpp:77] Creating layer norm2
I1216 16:45:32.059710 27805 net.cpp:100] Creating Layer norm2
I1216 16:45:32.059767 27805 net.cpp:434] norm2 <- conv2
I1216 16:45:32.059823 27805 net.cpp:408] norm2 -> norm2
I1216 16:45:32.060286 27805 net.cpp:150] Setting up norm2
I1216 16:45:32.060452 27805 net.cpp:157] Top shape: 32 256 27 27 (5971968)
I1216 16:45:32.060533 27805 net.cpp:165] Memory required for data: 211922688
I1216 16:45:32.060608 27805 layer_factory.hpp:77] Creating layer pool2
I1216 16:45:32.060756 27805 net.cpp:100] Creating Layer pool2
I1216 16:45:32.060828 27805 net.cpp:434] pool2 <- norm2
I1216 16:45:32.060909 27805 net.cpp:408] pool2 -> pool2
I1216 16:45:32.061028 27805 net.cpp:150] Setting up pool2
I1216 16:45:32.061110 27805 net.cpp:157] Top shape: 32 256 13 13 (1384448)
I1216 16:45:32.061187 27805 net.cpp:165] Memory required for data: 217460480
I1216 16:45:32.061321 27805 layer_factory.hpp:77] Creating layer conv3
I1216 16:45:32.061414 27805 net.cpp:100] Creating Layer conv3
I1216 16:45:32.061494 27805 net.cpp:434] conv3 <- pool2
I1216 16:45:32.061563 27805 net.cpp:408] conv3 -> conv3
I1216 16:45:32.075218 27805 net.cpp:150] Setting up conv3
I1216 16:45:32.075397 27805 net.cpp:157] Top shape: 32 384 13 13 (2076672)
I1216 16:45:32.075485 27805 net.cpp:165] Memory required for data: 225767168
I1216 16:45:32.075551 27805 layer_factory.hpp:77] Creating layer relu3
I1216 16:45:32.075613 27805 net.cpp:100] Creating Layer relu3
I1216 16:45:32.075667 27805 net.cpp:434] relu3 <- conv3
I1216 16:45:32.075726 27805 net.cpp:395] relu3 -> conv3 (in-place)
I1216 16:45:32.076469 27805 net.cpp:150] Setting up relu3
I1216 16:45:32.076571 27805 net.cpp:157] Top shape: 32 384 13 13 (2076672)
I1216 16:45:32.076627 27805 net.cpp:165] Memory required for data: 234073856
I1216 16:45:32.076678 27805 layer_factory.hpp:77] Creating layer conv4
I1216 16:45:32.076741 27805 net.cpp:100] Creating Layer conv4
I1216 16:45:32.076795 27805 net.cpp:434] conv4 <- conv3
I1216 16:45:32.076850 27805 net.cpp:408] conv4 -> conv4
I1216 16:45:32.085827 27805 net.cpp:150] Setting up conv4
I1216 16:45:32.086499 27805 net.cpp:157] Top shape: 32 384 13 13 (2076672)
I1216 16:45:32.086524 27805 net.cpp:165] Memory required for data: 242380544
I1216 16:45:32.087182 27805 layer_factory.hpp:77] Creating layer relu4
I1216 16:45:32.087209 27805 net.cpp:100] Creating Layer relu4
I1216 16:45:32.087316 27805 net.cpp:434] relu4 <- conv4
I1216 16:45:32.087342 27805 net.cpp:395] relu4 -> conv4 (in-place)
I1216 16:45:32.088141 27805 net.cpp:150] Setting up relu4
I1216 16:45:32.088230 27805 net.cpp:157] Top shape: 32 384 13 13 (2076672)
I1216 16:45:32.088321 27805 net.cpp:165] Memory required for data: 250687232
I1216 16:45:32.088413 27805 layer_factory.hpp:77] Creating layer conv5
I1216 16:45:32.088796 27805 net.cpp:100] Creating Layer conv5
I1216 16:45:32.088882 27805 net.cpp:434] conv5 <- conv4
I1216 16:45:32.088958 27805 net.cpp:408] conv5 -> conv5
I1216 16:45:32.098426 27805 net.cpp:150] Setting up conv5
I1216 16:45:32.098510 27805 net.cpp:157] Top shape: 32 256 13 13 (1384448)
I1216 16:45:32.098541 27805 net.cpp:165] Memory required for data: 256225024
I1216 16:45:32.098568 27805 layer_factory.hpp:77] Creating layer relu5
I1216 16:45:32.098592 27805 net.cpp:100] Creating Layer relu5
I1216 16:45:32.098600 27805 net.cpp:434] relu5 <- conv5
I1216 16:45:32.098609 27805 net.cpp:395] relu5 -> conv5 (in-place)
I1216 16:45:32.099414 27805 net.cpp:150] Setting up relu5
I1216 16:45:32.099465 27805 net.cpp:157] Top shape: 32 256 13 13 (1384448)
I1216 16:45:32.099488 27805 net.cpp:165] Memory required for data: 261762816
I1216 16:45:32.099520 27805 layer_factory.hpp:77] Creating layer pool5
I1216 16:45:32.099552 27805 net.cpp:100] Creating Layer pool5
I1216 16:45:32.099583 27805 net.cpp:434] pool5 <- conv5
I1216 16:45:32.099601 27805 net.cpp:408] pool5 -> pool5
I1216 16:45:32.099666 27805 net.cpp:150] Setting up pool5
I1216 16:45:32.099692 27805 net.cpp:157] Top shape: 32 256 6 6 (294912)
I1216 16:45:32.099720 27805 net.cpp:165] Memory required for data: 262942464
I1216 16:45:32.099799 27805 layer_factory.hpp:77] Creating layer fc6
I1216 16:45:32.099834 27805 net.cpp:100] Creating Layer fc6
I1216 16:45:32.099858 27805 net.cpp:434] fc6 <- pool5
I1216 16:45:32.099879 27805 net.cpp:408] fc6 -> fc6
I1216 16:45:32.435469 27805 net.cpp:150] Setting up fc6
I1216 16:45:32.435503 27805 net.cpp:157] Top shape: 32 4096 (131072)
I1216 16:45:32.435511 27805 net.cpp:165] Memory required for data: 263466752
I1216 16:45:32.435526 27805 layer_factory.hpp:77] Creating layer relu6
I1216 16:45:32.435542 27805 net.cpp:100] Creating Layer relu6
I1216 16:45:32.435550 27805 net.cpp:434] relu6 <- fc6
I1216 16:45:32.435560 27805 net.cpp:395] relu6 -> fc6 (in-place)
I1216 16:45:32.436110 27805 net.cpp:150] Setting up relu6
I1216 16:45:32.436127 27805 net.cpp:157] Top shape: 32 4096 (131072)
I1216 16:45:32.436132 27805 net.cpp:165] Memory required for data: 263991040
I1216 16:45:32.436137 27805 layer_factory.hpp:77] Creating layer drop6
I1216 16:45:32.436146 27805 net.cpp:100] Creating Layer drop6
I1216 16:45:32.436151 27805 net.cpp:434] drop6 <- fc6
I1216 16:45:32.436156 27805 net.cpp:395] drop6 -> fc6 (in-place)
I1216 16:45:32.436182 27805 net.cpp:150] Setting up drop6
I1216 16:45:32.436188 27805 net.cpp:157] Top shape: 32 4096 (131072)
I1216 16:45:32.436192 27805 net.cpp:165] Memory required for data: 264515328
I1216 16:45:32.436195 27805 layer_factory.hpp:77] Creating layer fc7
I1216 16:45:32.436203 27805 net.cpp:100] Creating Layer fc7
I1216 16:45:32.436208 27805 net.cpp:434] fc7 <- fc6
I1216 16:45:32.436213 27805 net.cpp:408] fc7 -> fc7
I1216 16:45:32.578541 27805 net.cpp:150] Setting up fc7
I1216 16:45:32.578570 27805 net.cpp:157] Top shape: 32 4096 (131072)
I1216 16:45:32.578575 27805 net.cpp:165] Memory required for data: 265039616
I1216 16:45:32.578588 27805 layer_factory.hpp:77] Creating layer relu7
I1216 16:45:32.578596 27805 net.cpp:100] Creating Layer relu7
I1216 16:45:32.578603 27805 net.cpp:434] relu7 <- fc7
I1216 16:45:32.578613 27805 net.cpp:395] relu7 -> fc7 (in-place)
I1216 16:45:32.578992 27805 net.cpp:150] Setting up relu7
I1216 16:45:32.579003 27805 net.cpp:157] Top shape: 32 4096 (131072)
I1216 16:45:32.579007 27805 net.cpp:165] Memory required for data: 265563904
I1216 16:45:32.579012 27805 layer_factory.hpp:77] Creating layer drop7
I1216 16:45:32.579020 27805 net.cpp:100] Creating Layer drop7
I1216 16:45:32.579025 27805 net.cpp:434] drop7 <- fc7
I1216 16:45:32.579031 27805 net.cpp:395] drop7 -> fc7 (in-place)
I1216 16:45:32.579056 27805 net.cpp:150] Setting up drop7
I1216 16:45:32.579062 27805 net.cpp:157] Top shape: 32 4096 (131072)
I1216 16:45:32.579066 27805 net.cpp:165] Memory required for data: 266088192
I1216 16:45:32.579071 27805 layer_factory.hpp:77] Creating layer fc8
I1216 16:45:32.579079 27805 net.cpp:100] Creating Layer fc8
I1216 16:45:32.579083 27805 net.cpp:434] fc8 <- fc7
I1216 16:45:32.579089 27805 net.cpp:408] fc8 -> fc8
I1216 16:45:32.579224 27805 net.cpp:150] Setting up fc8
I1216 16:45:32.579232 27805 net.cpp:157] Top shape: 32 2 (64)
I1216 16:45:32.579236 27805 net.cpp:165] Memory required for data: 266088448
I1216 16:45:32.579242 27805 layer_factory.hpp:77] Creating layer fc8_fc8_0_split
I1216 16:45:32.579249 27805 net.cpp:100] Creating Layer fc8_fc8_0_split
I1216 16:45:32.579254 27805 net.cpp:434] fc8_fc8_0_split <- fc8
I1216 16:45:32.579260 27805 net.cpp:408] fc8_fc8_0_split -> fc8_fc8_0_split_0
I1216 16:45:32.579267 27805 net.cpp:408] fc8_fc8_0_split -> fc8_fc8_0_split_1
I1216 16:45:32.579294 27805 net.cpp:150] Setting up fc8_fc8_0_split
I1216 16:45:32.579300 27805 net.cpp:157] Top shape: 32 2 (64)
I1216 16:45:32.579305 27805 net.cpp:157] Top shape: 32 2 (64)
I1216 16:45:32.579309 27805 net.cpp:165] Memory required for data: 266088960
I1216 16:45:32.579313 27805 layer_factory.hpp:77] Creating layer accuracy
I1216 16:45:32.579320 27805 net.cpp:100] Creating Layer accuracy
I1216 16:45:32.579324 27805 net.cpp:434] accuracy <- fc8_fc8_0_split_0
I1216 16:45:32.579329 27805 net.cpp:434] accuracy <- label_data_1_split_0
I1216 16:45:32.579355 27805 net.cpp:408] accuracy -> accuracy
…
