…
I1216 16:59:22.718518 30570 net.cpp:322] The NetState phase (0) differed from the phase (1) specified by a rule in layer accuracy
I1216 16:59:22.718636 30570 net.cpp:58] Initializing net from parameters: 
name: "AlexNet"
state {
  phase: TRAIN
  level: 0
  stage: ""
}
layer {
  name: "data"
  type: "Data"
  top: "data"
  top: "label"
  include {
    phase: TRAIN
  }
  transform_param {
    mirror: true
    crop_size: 227
    mean_file: "/home/little_prince/SSD_disk/caffe_practise/Data/train_alex.binaryproto"
  }
  data_param {
    source: "./Data/train_lmdb_alex"
    batch_size: 64
    backend: LMDB
  }
}
layer {
  name: "conv1"
  type: "Convolution"
  bottom: "data"
  top: "conv1"
  param {
    lr_mult: 1
    decay_mult: 1
  }
  param {
    lr_mult: 2
    decay_mult: 0
  }
  convolution_param {
    num_output: 96
    kernel_size: 11
    stride: 4
    weight_filler {
      type: "gaussian"
      std: 0.01
    }
    bias_filler {
      type: "constant"
      value: 0
    }
  }
}
layer {
  name: "relu1"
  type: "ReLU"
  bottom: "conv1"
  top: "conv1"
}
layer {
  name: "norm1"
  type: "LRN"
  bottom: "conv1"
  top: "norm1"
  lrn_param {
    local_size: 5
    alpha: 0.0001
    beta: 0.75
  }
}
layer {
  name: "pool1"
  type: "Pooling"
  bottom: "norm1"
  top: "pool1"
  pooling_param {
    pool: MAX
    kernel_size: 3
    stride: 2
  }
}
layer {
  name: "conv2"
  type: "Convolution"
  bottom: "pool1"
  top: "conv2"
  param {
    lr_mult: 1
    decay_mult: 1
  }
  param {
    lr_mult: 2
    decay_mult: 0
  }
  convolution_param {
    num_output: 256
    pad: 2
    kernel_size: 5
    group: 2
    weight_filler {
      type: "gaussian"
      std: 0.01
    }
    bias_filler {
      type: "constant"
      value: 0.1
    }
  }
}
layer {
  name: "relu2"
  type: "ReLU"
  bottom: "conv2"
  top: "conv2"
}
layer {
  name: "norm2"
  type: "LRN"
  bottom: "conv2"
  top: "norm2"
  lrn_param {
    local_size: 5
    alpha: 0.0001
    beta: 0.75
  }
}
layer {
  name: "pool2"
  type: "Pooling"
  bottom: "norm2"
  top: "pool2"
  pooling_param {
    pool: MAX
    kernel_size: 3
    stride: 2
  }
}
layer {
  name: "conv3"
  type: "Convolution"
  bottom: "pool2"
  top: "conv3"
  param {
    lr_mult: 1
    decay_mult: 1
  }
  param {
    lr_mult: 2
    decay_mult: 0
  }
  convolution_param {
    num_output: 384
    pad: 1
    kernel_size: 3
    weight_filler {
      type: "gaussian"
      std: 0.01
    }
    bias_filler {
      type: "constant"
      value: 0
    }
  }
}
layer {
  name: "relu3"
  type: "ReLU"
  bottom: "conv3"
  top: "conv3"
}
layer {
  name: "conv4"
  type: "Convolution"
  bottom: "conv3"
  top: "conv4"
  param {
    lr_mult: 1
    decay_mult: 1
  }
  param {
    lr_mult: 2
    decay_mult: 0
  }
  convolution_param {
    num_output: 384
    pad: 1
    kernel_size: 3
    group: 2
    weight_filler {
      type: "gaussian"
      std: 0.01
    }
    bias_filler {
      type: "constant"
      value: 0.1
    }
  }
}
layer {
  name: "relu4"
  type: "ReLU"
  bottom: "conv4"
  top: "conv4"
}
layer {
  name: "conv5"
  type: "Convolution"
  bottom: "conv4"
  top: "conv5"
  param {
    lr_mult: 1
    decay_mult: 1
  }
  param {
    lr_mult: 2
    decay_mult: 0
  }
  convolution_param {
    num_output: 256
    pad: 1
    kernel_size: 3
    group: 2
    weight_filler {
      type: "gaussian"
      std: 0.01
    }
    bias_filler {
      type: "constant"
      value: 0.1
    }
  }
}
layer {
  name: "relu5"
  type: "ReLU"
  bottom: "conv5"
  top: "conv5"
}
layer {
  name: "pool5"
  type: "Pooling"
  bottom: "conv5"
  top: "pool5"
  pooling_param {
    pool: MAX
    kernel_size: 3
    stride: 2
  }
}
layer {
  name: "fc6"
  type: "InnerProduct"
  bottom: "pool5"
  top: "fc6"
  param {
    lr_mult: 1
    decay_mult: 1
  }
  param {
    lr_mult: 2
    decay_mult: 0
  }
  inner_product_param {
    num_output: 4096
    weight_filler {
      type: "gaussian"
      std: 0.005
    }
    bias_filler {
      type: "constant"
      value: 0.1
    }
  }
}
layer {
  name: "relu6"
  type: "ReLU"
  bottom: "fc6"
  top: "fc6"
}
layer {
  name: "drop6"
  type: "Dropout"
  bottom: "fc6"
  top: "fc6"
  dropout_param {
    dropout_ratio: 0.5
  }
}
layer {
  name: "fc7"
  type: "InnerProduct"
  bottom: "fc6"
  top: "fc7"
  param {
    lr_mult: 1
    decay_mult: 1
  }
  param {
    lr_mult: 2
    decay_mult: 0
  }
  inner_product_param {
    num_output: 4096
    weight_filler {
      type: "gaussian"
      std: 0.005
    }
    bias_filler {
      type: "constant"
      value: 0.1
    }
  }
}
layer {
  name: "relu7"
  type: "ReLU"
  bottom: "fc7"
  top: "fc7"
}
layer {
  name: "drop7"
  type: "Dropout"
  bottom: "fc7"
  top: "fc7"
  dropout_param {
    dropout_ratio: 0.5
  }
}
layer {
  name: "fc8"
  type: "InnerProduct"
  bottom: "fc7"
  top: "fc8"
  param {
    lr_mult: 1
    decay_mult: 1
  }
  param {
    lr_mult: 2
    decay_mult: 0
  }
  inner_product_param {
    num_output: 2
    weight_filler {
      type: "gaussian"
      std: 0.01
    }
    bias_filler {
      type: "constant"
      value: 0
    }
  }
}
layer {
  name: "loss"
  type: "SoftmaxWithLoss"
  bottom: "fc8"
  bottom: "label"
  top: "loss"
}
I1216 16:59:22.718853 30570 layer_factory.hpp:77] Creating layer data
I1216 16:59:22.720232 30570 net.cpp:100] Creating Layer data
I1216 16:59:22.720245 30570 net.cpp:408] data -> data
I1216 16:59:22.720269 30570 net.cpp:408] data -> label
I1216 16:59:22.720283 30570 data_transformer.cpp:27] Loading mean file from: /home/little_prince/SSD_disk/caffe_practise/Data/train_alex.binaryproto
I1216 16:59:22.736515 30595 db_lmdb.cpp:35] Opened lmdb ./Data/train_lmdb_alex
I1216 16:59:22.769788 30570 data_layer.cpp:41] output data size: 64,3,227,227
I1216 16:59:22.838776 30570 net.cpp:150] Setting up data
I1216 16:59:22.838814 30570 net.cpp:157] Top shape: 64 3 227 227 (9893568)
I1216 16:59:22.838821 30570 net.cpp:157] Top shape: 64 (64)
I1216 16:59:22.838826 30570 net.cpp:165] Memory required for data: 39574528
I1216 16:59:22.838836 30570 layer_factory.hpp:77] Creating layer conv1
I1216 16:59:22.838862 30570 net.cpp:100] Creating Layer conv1
I1216 16:59:22.838869 30570 net.cpp:434] conv1 <- data
I1216 16:59:22.838883 30570 net.cpp:408] conv1 -> conv1
I1216 16:59:24.903877 30570 net.cpp:150] Setting up conv1
I1216 16:59:24.903904 30570 net.cpp:157] Top shape: 64 96 55 55 (18585600)
I1216 16:59:24.903909 30570 net.cpp:165] Memory required for data: 113916928
I1216 16:59:24.903937 30570 layer_factory.hpp:77] Creating layer relu1
I1216 16:59:24.903949 30570 net.cpp:100] Creating Layer relu1
I1216 16:59:24.903954 30570 net.cpp:434] relu1 <- conv1
I1216 16:59:24.903960 30570 net.cpp:395] relu1 -> conv1 (in-place)
I1216 16:59:24.904346 30570 net.cpp:150] Setting up relu1
I1216 16:59:24.904358 30570 net.cpp:157] Top shape: 64 96 55 55 (18585600)
I1216 16:59:24.904363 30570 net.cpp:165] Memory required for data: 188259328
I1216 16:59:24.904368 30570 layer_factory.hpp:77] Creating layer norm1
I1216 16:59:24.904381 30570 net.cpp:100] Creating Layer norm1
I1216 16:59:24.904384 30570 net.cpp:434] norm1 <- conv1
I1216 16:59:24.904390 30570 net.cpp:408] norm1 -> norm1
I1216 16:59:24.904820 30570 net.cpp:150] Setting up norm1
I1216 16:59:24.904832 30570 net.cpp:157] Top shape: 64 96 55 55 (18585600)
I1216 16:59:24.904837 30570 net.cpp:165] Memory required for data: 262601728
I1216 16:59:24.904841 30570 layer_factory.hpp:77] Creating layer pool1
I1216 16:59:24.904850 30570 net.cpp:100] Creating Layer pool1
I1216 16:59:24.904875 30570 net.cpp:434] pool1 <- norm1
I1216 16:59:24.904881 30570 net.cpp:408] pool1 -> pool1
I1216 16:59:24.904915 30570 net.cpp:150] Setting up pool1
I1216 16:59:24.904922 30570 net.cpp:157] Top shape: 64 96 27 27 (4478976)
I1216 16:59:24.904925 30570 net.cpp:165] Memory required for data: 280517632
I1216 16:59:24.904928 30570 layer_factory.hpp:77] Creating layer conv2
I1216 16:59:24.904938 30570 net.cpp:100] Creating Layer conv2
I1216 16:59:24.904942 30570 net.cpp:434] conv2 <- pool1
I1216 16:59:24.904948 30570 net.cpp:408] conv2 -> conv2
I1216 16:59:24.910540 30570 net.cpp:150] Setting up conv2
I1216 16:59:24.910563 30570 net.cpp:157] Top shape: 64 256 27 27 (11943936)
I1216 16:59:24.910568 30570 net.cpp:165] Memory required for data: 328293376
I1216 16:59:24.910583 30570 layer_factory.hpp:77] Creating layer relu2
I1216 16:59:24.910605 30570 net.cpp:100] Creating Layer relu2
I1216 16:59:24.910616 30570 net.cpp:434] relu2 <- conv2
I1216 16:59:24.910629 30570 net.cpp:395] relu2 -> conv2 (in-place)
I1216 16:59:24.911047 30570 net.cpp:150] Setting up relu2
I1216 16:59:24.911064 30570 net.cpp:157] Top shape: 64 256 27 27 (11943936)
I1216 16:59:24.911069 30570 net.cpp:165] Memory required for data: 376069120
I1216 16:59:24.911074 30570 layer_factory.hpp:77] Creating layer norm2
I1216 16:59:24.911083 30570 net.cpp:100] Creating Layer norm2
I1216 16:59:24.911088 30570 net.cpp:434] norm2 <- conv2
I1216 16:59:24.911094 30570 net.cpp:408] norm2 -> norm2
I1216 16:59:24.911415 30570 net.cpp:150] Setting up norm2
I1216 16:59:24.911427 30570 net.cpp:157] Top shape: 64 256 27 27 (11943936)
I1216 16:59:24.911432 30570 net.cpp:165] Memory required for data: 423844864
I1216 16:59:24.911437 30570 layer_factory.hpp:77] Creating layer pool2
I1216 16:59:24.911444 30570 net.cpp:100] Creating Layer pool2
I1216 16:59:24.911450 30570 net.cpp:434] pool2 <- norm2
I1216 16:59:24.911456 30570 net.cpp:408] pool2 -> pool2
I1216 16:59:24.911484 30570 net.cpp:150] Setting up pool2
I1216 16:59:24.911495 30570 net.cpp:157] Top shape: 64 256 13 13 (2768896)
I1216 16:59:24.911501 30570 net.cpp:165] Memory required for data: 434920448
I1216 16:59:24.911505 30570 layer_factory.hpp:77] Creating layer conv3
I1216 16:59:24.911517 30570 net.cpp:100] Creating Layer conv3
I1216 16:59:24.911522 30570 net.cpp:434] conv3 <- pool2
I1216 16:59:24.911530 30570 net.cpp:408] conv3 -> conv3
I1216 16:59:24.920228 30570 net.cpp:150] Setting up conv3
I1216 16:59:24.920258 30570 net.cpp:157] Top shape: 64 384 13 13 (4153344)
I1216 16:59:24.920264 30570 net.cpp:165] Memory required for data: 451533824
I1216 16:59:24.920277 30570 layer_factory.hpp:77] Creating layer relu3
I1216 16:59:24.920287 30570 net.cpp:100] Creating Layer relu3
I1216 16:59:24.920292 30570 net.cpp:434] relu3 <- conv3
I1216 16:59:24.920298 30570 net.cpp:395] relu3 -> conv3 (in-place)
I1216 16:59:24.920619 30570 net.cpp:150] Setting up relu3
I1216 16:59:24.920635 30570 net.cpp:157] Top shape: 64 384 13 13 (4153344)
I1216 16:59:24.920647 30570 net.cpp:165] Memory required for data: 468147200
I1216 16:59:24.920655 30570 layer_factory.hpp:77] Creating layer conv4
I1216 16:59:24.920671 30570 net.cpp:100] Creating Layer conv4
I1216 16:59:24.920681 30570 net.cpp:434] conv4 <- conv3
I1216 16:59:24.920692 30570 net.cpp:408] conv4 -> conv4
I1216 16:59:24.929721 30570 net.cpp:150] Setting up conv4
I1216 16:59:24.929764 30570 net.cpp:157] Top shape: 64 384 13 13 (4153344)
I1216 16:59:24.929771 30570 net.cpp:165] Memory required for data: 484760576
I1216 16:59:24.929785 30570 layer_factory.hpp:77] Creating layer relu4
I1216 16:59:24.929800 30570 net.cpp:100] Creating Layer relu4
I1216 16:59:24.929808 30570 net.cpp:434] relu4 <- conv4
I1216 16:59:24.929818 30570 net.cpp:395] relu4 -> conv4 (in-place)
I1216 16:59:24.930223 30570 net.cpp:150] Setting up relu4
I1216 16:59:24.930239 30570 net.cpp:157] Top shape: 64 384 13 13 (4153344)
I1216 16:59:24.930246 30570 net.cpp:165] Memory required for data: 501373952
I1216 16:59:24.930253 30570 layer_factory.hpp:77] Creating layer conv5
I1216 16:59:24.930270 30570 net.cpp:100] Creating Layer conv5
I1216 16:59:24.930301 30570 net.cpp:434] conv5 <- conv4
I1216 16:59:24.930311 30570 net.cpp:408] conv5 -> conv5
I1216 16:59:24.946967 30570 net.cpp:150] Setting up conv5
I1216 16:59:24.947013 30570 net.cpp:157] Top shape: 64 256 13 13 (2768896)
I1216 16:59:24.947021 30570 net.cpp:165] Memory required for data: 512449536
I1216 16:59:24.947049 30570 layer_factory.hpp:77] Creating layer relu5
I1216 16:59:24.947067 30570 net.cpp:100] Creating Layer relu5
I1216 16:59:24.947074 30570 net.cpp:434] relu5 <- conv5
I1216 16:59:24.947085 30570 net.cpp:395] relu5 -> conv5 (in-place)
I1216 16:59:24.947605 30570 net.cpp:150] Setting up relu5
I1216 16:59:24.947625 30570 net.cpp:157] Top shape: 64 256 13 13 (2768896)
I1216 16:59:24.947633 30570 net.cpp:165] Memory required for data: 523525120
I1216 16:59:24.947640 30570 layer_factory.hpp:77] Creating layer pool5
I1216 16:59:24.947652 30570 net.cpp:100] Creating Layer pool5
I1216 16:59:24.947660 30570 net.cpp:434] pool5 <- conv5
I1216 16:59:24.947671 30570 net.cpp:408] pool5 -> pool5
I1216 16:59:24.947724 30570 net.cpp:150] Setting up pool5
I1216 16:59:24.947732 30570 net.cpp:157] Top shape: 64 256 6 6 (589824)
I1216 16:59:24.947736 30570 net.cpp:165] Memory required for data: 525884416
I1216 16:59:24.947741 30570 layer_factory.hpp:77] Creating layer fc6
I1216 16:59:24.947753 30570 net.cpp:100] Creating Layer fc6
I1216 16:59:24.947758 30570 net.cpp:434] fc6 <- pool5
I1216 16:59:24.947764 30570 net.cpp:408] fc6 -> fc6
I1216 16:59:25.268082 30570 net.cpp:150] Setting up fc6
I1216 16:59:25.268108 30570 net.cpp:157] Top shape: 64 4096 (262144)
I1216 16:59:25.268113 30570 net.cpp:165] Memory required for data: 526932992
I1216 16:59:25.268123 30570 layer_factory.hpp:77] Creating layer relu6
I1216 16:59:25.268133 30570 net.cpp:100] Creating Layer relu6
I1216 16:59:25.268138 30570 net.cpp:434] relu6 <- fc6
I1216 16:59:25.268147 30570 net.cpp:395] relu6 -> fc6 (in-place)
I1216 16:59:25.268657 30570 net.cpp:150] Setting up relu6
I1216 16:59:25.268669 30570 net.cpp:157] Top shape: 64 4096 (262144)
I1216 16:59:25.268674 30570 net.cpp:165] Memory required for data: 527981568
I1216 16:59:25.268678 30570 layer_factory.hpp:77] Creating layer drop6
I1216 16:59:25.268687 30570 net.cpp:100] Creating Layer drop6
I1216 16:59:25.268692 30570 net.cpp:434] drop6 <- fc6
I1216 16:59:25.268698 30570 net.cpp:395] drop6 -> fc6 (in-place)
I1216 16:59:25.268725 30570 net.cpp:150] Setting up drop6
I1216 16:59:25.268733 30570 net.cpp:157] Top shape: 64 4096 (262144)
I1216 16:59:25.268736 30570 net.cpp:165] Memory required for data: 529030144
I1216 16:59:25.268740 30570 layer_factory.hpp:77] Creating layer fc7
I1216 16:59:25.268748 30570 net.cpp:100] Creating Layer fc7
I1216 16:59:25.268752 30570 net.cpp:434] fc7 <- fc6
I1216 16:59:25.268759 30570 net.cpp:408] fc7 -> fc7
I1216 16:59:25.404978 30570 net.cpp:150] Setting up fc7
I1216 16:59:25.405005 30570 net.cpp:157] Top shape: 64 4096 (262144)
I1216 16:59:25.405009 30570 net.cpp:165] Memory required for data: 530078720
I1216 16:59:25.405020 30570 layer_factory.hpp:77] Creating layer relu7
I1216 16:59:25.405030 30570 net.cpp:100] Creating Layer relu7
I1216 16:59:25.405035 30570 net.cpp:434] relu7 <- fc7
I1216 16:59:25.405042 30570 net.cpp:395] relu7 -> fc7 (in-place)
I1216 16:59:25.405591 30570 net.cpp:150] Setting up relu7
I1216 16:59:25.405602 30570 net.cpp:157] Top shape: 64 4096 (262144)
I1216 16:59:25.405607 30570 net.cpp:165] Memory required for data: 531127296
I1216 16:59:25.405612 30570 layer_factory.hpp:77] Creating layer drop7
I1216 16:59:25.405620 30570 net.cpp:100] Creating Layer drop7
I1216 16:59:25.405625 30570 net.cpp:434] drop7 <- fc7
I1216 16:59:25.405632 30570 net.cpp:395] drop7 -> fc7 (in-place)
I1216 16:59:25.405655 30570 net.cpp:150] Setting up drop7
I1216 16:59:25.405661 30570 net.cpp:157] Top shape: 64 4096 (262144)
I1216 16:59:25.405665 30570 net.cpp:165] Memory required for data: 532175872
I1216 16:59:25.405670 30570 layer_factory.hpp:77] Creating layer fc8
I1216 16:59:25.405678 30570 net.cpp:100] Creating Layer fc8
I1216 16:59:25.405700 30570 net.cpp:434] fc8 <- fc7
I1216 16:59:25.405707 30570 net.cpp:408] fc8 -> fc8
I1216 16:59:25.405833 30570 net.cpp:150] Setting up fc8
I1216 16:59:25.405839 30570 net.cpp:157] Top shape: 64 2 (128)
I1216 16:59:25.405844 30570 net.cpp:165] Memory required for data: 532176384
I1216 16:59:25.405850 30570 layer_factory.hpp:77] Creating layer loss
I1216 16:59:25.405864 30570 net.cpp:100] Creating Layer loss
I1216 16:59:25.405867 30570 net.cpp:434] loss <- fc8
I1216 16:59:25.405872 30570 net.cpp:434] loss <- label
I1216 16:59:25.405879 30570 net.cpp:408] loss -> loss
I1216 16:59:25.405894 30570 layer_factory.hpp:77] Creating layer loss
…
I1216 16:59:25.406780 30570 solver.cpp:196] Creating test net (#0) specified by net file: ./models/bvlc_alexnet/train_val.prototxt
I1216 16:59:25.406810 30570 net.cpp:322] The NetState phase (1) differed from the phase (0) specified by a rule in layer data
I1216 16:59:25.406932 30570 net.cpp:58] Initializing net from parameters: 
name: "AlexNet"
state {
  phase: TEST
}
layer {
  name: "data"
  type: "Data"
  top: "data"
  top: "label"
  include {
    phase: TEST
  }
  transform_param {
    mirror: false
    crop_size: 227
    mean_value: 104
    mean_value: 117
    mean_value: 123
  }
  data_param {
    source: "./Data/val_lmdb_alex"
    batch_size: 64
    backend: LMDB
  }
}
layer {
  name: "conv1"
  type: "Convolution"
  bottom: "data"
  top: "conv1"
  param {
    lr_mult: 1
    decay_mult: 1
  }
  param {
    lr_mult: 2
    decay_mult: 0
  }
  convolution_param {
    num_output: 96
    kernel_size: 11
    stride: 4
    weight_filler {
      type: "gaussian"
      std: 0.01
    }
    bias_filler {
      type: "constant"
      value: 0
    }
  }
}
layer {
  name: "relu1"
  type: "ReLU"
  bottom: "conv1"
  top: "conv1"
}
layer {
  name: "norm1"
  type: "LRN"
  bottom: "conv1"
  top: "norm1"
  lrn_param {
    local_size: 5
    alpha: 0.0001
    beta: 0.75
  }
}
layer {
  name: "pool1"
  type: "Pooling"
  bottom: "norm1"
  top: "pool1"
  pooling_param {
    pool: MAX
    kernel_size: 3
    stride: 2
  }
}
layer {
  name: "conv2"
  type: "Convolution"
  bottom: "pool1"
  top: "conv2"
  param {
    lr_mult: 1
    decay_mult: 1
  }
  param {
    lr_mult: 2
    decay_mult: 0
  }
  convolution_param {
    num_output: 256
    pad: 2
    kernel_size: 5
    group: 2
    weight_filler {
      type: "gaussian"
      std: 0.01
    }
    bias_filler {
      type: "constant"
      value: 0.1
    }
  }
}
layer {
  name: "relu2"
  type: "ReLU"
  bottom: "conv2"
  top: "conv2"
}
layer {
  name: "norm2"
  type: "LRN"
  bottom: "conv2"
  top: "norm2"
  lrn_param {
    local_size: 5
    alpha: 0.0001
    beta: 0.75
  }
}
layer {
  name: "pool2"
  type: "Pooling"
  bottom: "norm2"
  top: "pool2"
  pooling_param {
    pool: MAX
    kernel_size: 3
    stride: 2
  }
}
layer {
  name: "conv3"
  type: "Convolution"
  bottom: "pool2"
  top: "conv3"
  param {
    lr_mult: 1
    decay_mult: 1
  }
  param {
    lr_mult: 2
    decay_mult: 0
  }
  convolution_param {
    num_output: 384
    pad: 1
    kernel_size: 3
    weight_filler {
      type: "gaussian"
      std: 0.01
    }
    bias_filler {
      type: "constant"
      value: 0
    }
  }
}
layer {
  name: "relu3"
  type: "ReLU"
  bottom: "conv3"
  top: "conv3"
}
layer {
  name: "conv4"
  type: "Convolution"
  bottom: "conv3"
  top: "conv4"
  param {
    lr_mult: 1
    decay_mult: 1
  }
  param {
    lr_mult: 2
    decay_mult: 0
  }
  convolution_param {
    num_output: 384
    pad: 1
    kernel_size: 3
    group: 2
    weight_filler {
      type: "gaussian"
      std: 0.01
    }
    bias_filler {
      type: "constant"
      value: 0.1
    }
  }
}
layer {
  name: "relu4"
  type: "ReLU"
  bottom: "conv4"
  top: "conv4"
}
layer {
  name: "conv5"
  type: "Convolution"
  bottom: "conv4"
  top: "conv5"
  param {
    lr_mult: 1
    decay_mult: 1
  }
  param {
    lr_mult: 2
    decay_mult: 0
  }
  convolution_param {
    num_output: 256
    pad: 1
    kernel_size: 3
    group: 2
    weight_filler {
      type: "gaussian"
      std: 0.01
    }
    bias_filler {
      type: "constant"
      value: 0.1
    }
  }
}
layer {
  name: "relu5"
  type: "ReLU"
  bottom: "conv5"
  top: "conv5"
}
layer {
  name: "pool5"
  type: "Pooling"
  bottom: "conv5"
  top: "pool5"
  pooling_param {
    pool: MAX
    kernel_size: 3
    stride: 2
  }
}
layer {
  name: "fc6"
  type: "InnerProduct"
  bottom: "pool5"
  top: "fc6"
  param {
    lr_mult: 1
    decay_mult: 1
  }
  param {
    lr_mult: 2
    decay_mult: 0
  }
  inner_product_param {
    num_output: 4096
    weight_filler {
      type: "gaussian"
      std: 0.005
    }
    bias_filler {
      type: "constant"
      value: 0.1
    }
  }
}
layer {
  name: "relu6"
  type: "ReLU"
  bottom: "fc6"
  top: "fc6"
}
layer {
  name: "drop6"
  type: "Dropout"
  bottom: "fc6"
  top: "fc6"
  dropout_param {
    dropout_ratio: 0.5
  }
}
layer {
  name: "fc7"
  type: "InnerProduct"
  bottom: "fc6"
  top: "fc7"
  param {
    lr_mult: 1
    decay_mult: 1
  }
  param {
    lr_mult: 2
    decay_mult: 0
  }
  inner_product_param {
    num_output: 4096
    weight_filler {
      type: "gaussian"
      std: 0.005
    }
    bias_filler {
      type: "constant"
      value: 0.1
    }
  }
}
layer {
  name: "relu7"
  type: "ReLU"
  bottom: "fc7"
  top: "fc7"
}
layer {
  name: "drop7"
  type: "Dropout"
  bottom: "fc7"
  top: "fc7"
  dropout_param {
    dropout_ratio: 0.5
  }
}
layer {
  name: "fc8"
  type: "InnerProduct"
  bottom: "fc7"
  top: "fc8"
  param {
    lr_mult: 1
    decay_mult: 1
  }
  param {
    lr_mult: 2
    decay_mult: 0
  }
  inner_product_param {
    num_output: 2
    weight_filler {
      type: "gaussian"
      std: 0.01
    }
    bias_filler {
      type: "constant"
      value: 0
    }
  }
}
layer {
  name: "accuracy"
  type: "Accuracy"
  bottom: "fc8"
  bottom: "label"
  top: "accuracy"
  include {
    phase: TEST
  }
}
layer {
  name: "loss"
  type: "SoftmaxWithLoss"
  bottom: "fc8"
  bottom: "label"
  top: "loss"
}
I1216 16:59:25.407222 30570 layer_factory.hpp:77] Creating layer data
I1216 16:59:25.407301 30570 net.cpp:100] Creating Layer data
I1216 16:59:25.407310 30570 net.cpp:408] data -> data
I1216 16:59:25.407320 30570 net.cpp:408] data -> label
I1216 16:59:25.407781 30604 db_lmdb.cpp:35] Opened lmdb ./Data/val_lmdb_alex
I1216 16:59:25.407992 30570 data_layer.cpp:41] output data size: 64,3,227,227
I1216 16:59:25.484131 30570 net.cpp:150] Setting up data
I1216 16:59:25.484220 30570 net.cpp:157] Top shape: 64 3 227 227 (9893568)
I1216 16:59:25.484231 30570 net.cpp:157] Top shape: 64 (64)
I1216 16:59:25.484238 30570 net.cpp:165] Memory required for data: 39574528
I1216 16:59:25.484254 30570 layer_factory.hpp:77] Creating layer label_data_1_split
I1216 16:59:25.484284 30570 net.cpp:100] Creating Layer label_data_1_split
I1216 16:59:25.484294 30570 net.cpp:434] label_data_1_split <- label
I1216 16:59:25.484311 30570 net.cpp:408] label_data_1_split -> label_data_1_split_0
I1216 16:59:25.484329 30570 net.cpp:408] label_data_1_split -> label_data_1_split_1
I1216 16:59:25.484424 30570 net.cpp:150] Setting up label_data_1_split
I1216 16:59:25.484506 30570 net.cpp:157] Top shape: 64 (64)
I1216 16:59:25.484560 30570 net.cpp:157] Top shape: 64 (64)
I1216 16:59:25.484613 30570 net.cpp:165] Memory required for data: 39575040
I1216 16:59:25.484664 30570 layer_factory.hpp:77] Creating layer conv1
I1216 16:59:25.484733 30570 net.cpp:100] Creating Layer conv1
I1216 16:59:25.484787 30570 net.cpp:434] conv1 <- data
I1216 16:59:25.484845 30570 net.cpp:408] conv1 -> conv1
I1216 16:59:25.487079 30570 net.cpp:150] Setting up conv1
I1216 16:59:25.487268 30570 net.cpp:157] Top shape: 64 96 55 55 (18585600)
I1216 16:59:25.487321 30570 net.cpp:165] Memory required for data: 113917440
I1216 16:59:25.487385 30570 layer_factory.hpp:77] Creating layer relu1
I1216 16:59:25.487442 30570 net.cpp:100] Creating Layer relu1
I1216 16:59:25.487493 30570 net.cpp:434] relu1 <- conv1
I1216 16:59:25.487548 30570 net.cpp:395] relu1 -> conv1 (in-place)
I1216 16:59:25.488086 30570 net.cpp:150] Setting up relu1
I1216 16:59:25.488155 30570 net.cpp:157] Top shape: 64 96 55 55 (18585600)
I1216 16:59:25.488206 30570 net.cpp:165] Memory required for data: 188259840
I1216 16:59:25.488258 30570 layer_factory.hpp:77] Creating layer norm1
I1216 16:59:25.488317 30570 net.cpp:100] Creating Layer norm1
I1216 16:59:25.488368 30570 net.cpp:434] norm1 <- conv1
I1216 16:59:25.488423 30570 net.cpp:408] norm1 -> norm1
I1216 16:59:25.488943 30570 net.cpp:150] Setting up norm1
I1216 16:59:25.489014 30570 net.cpp:157] Top shape: 64 96 55 55 (18585600)
I1216 16:59:25.489065 30570 net.cpp:165] Memory required for data: 262602240
I1216 16:59:25.489117 30570 layer_factory.hpp:77] Creating layer pool1
I1216 16:59:25.489173 30570 net.cpp:100] Creating Layer pool1
I1216 16:59:25.489226 30570 net.cpp:434] pool1 <- norm1
I1216 16:59:25.489282 30570 net.cpp:408] pool1 -> pool1
I1216 16:59:25.489364 30570 net.cpp:150] Setting up pool1
I1216 16:59:25.489421 30570 net.cpp:157] Top shape: 64 96 27 27 (4478976)
I1216 16:59:25.489473 30570 net.cpp:165] Memory required for data: 280518144
I1216 16:59:25.489523 30570 layer_factory.hpp:77] Creating layer conv2
I1216 16:59:25.489581 30570 net.cpp:100] Creating Layer conv2
I1216 16:59:25.489634 30570 net.cpp:434] conv2 <- pool1
I1216 16:59:25.489687 30570 net.cpp:408] conv2 -> conv2
I1216 16:59:25.498404 30570 net.cpp:150] Setting up conv2
I1216 16:59:25.499141 30570 net.cpp:157] Top shape: 64 256 27 27 (11943936)
I1216 16:59:25.499155 30570 net.cpp:165] Memory required for data: 328293888
I1216 16:59:25.499178 30570 layer_factory.hpp:77] Creating layer relu2
I1216 16:59:25.499202 30570 net.cpp:100] Creating Layer relu2
I1216 16:59:25.499212 30570 net.cpp:434] relu2 <- conv2
I1216 16:59:25.499223 30570 net.cpp:395] relu2 -> conv2 (in-place)
I1216 16:59:25.509073 30570 net.cpp:150] Setting up relu2
I1216 16:59:25.509353 30570 net.cpp:157] Top shape: 64 256 27 27 (11943936)
I1216 16:59:25.509415 30570 net.cpp:165] Memory required for data: 376069632
I1216 16:59:25.509549 30570 layer_factory.hpp:77] Creating layer norm2
I1216 16:59:25.509639 30570 net.cpp:100] Creating Layer norm2
I1216 16:59:25.509701 30570 net.cpp:434] norm2 <- conv2
I1216 16:59:25.509768 30570 net.cpp:408] norm2 -> norm2
I1216 16:59:25.510761 30570 net.cpp:150] Setting up norm2
I1216 16:59:25.510953 30570 net.cpp:157] Top shape: 64 256 27 27 (11943936)
I1216 16:59:25.511013 30570 net.cpp:165] Memory required for data: 423845376
I1216 16:59:25.511071 30570 layer_factory.hpp:77] Creating layer pool2
I1216 16:59:25.511147 30570 net.cpp:100] Creating Layer pool2
I1216 16:59:25.511205 30570 net.cpp:434] pool2 <- norm2
I1216 16:59:25.516607 30570 net.cpp:408] pool2 -> pool2
I1216 16:59:25.516916 30570 net.cpp:150] Setting up pool2
I1216 16:59:25.516985 30570 net.cpp:157] Top shape: 64 256 13 13 (2768896)
I1216 16:59:25.517037 30570 net.cpp:165] Memory required for data: 434920960
I1216 16:59:25.517091 30570 layer_factory.hpp:77] Creating layer conv3
I1216 16:59:25.517154 30570 net.cpp:100] Creating Layer conv3
I1216 16:59:25.517207 30570 net.cpp:434] conv3 <- pool2
I1216 16:59:25.517262 30570 net.cpp:408] conv3 -> conv3
I1216 16:59:25.534924 30570 net.cpp:150] Setting up conv3
I1216 16:59:25.534961 30570 net.cpp:157] Top shape: 64 384 13 13 (4153344)
I1216 16:59:25.534967 30570 net.cpp:165] Memory required for data: 451534336
I1216 16:59:25.534982 30570 layer_factory.hpp:77] Creating layer relu3
I1216 16:59:25.534992 30570 net.cpp:100] Creating Layer relu3
I1216 16:59:25.535001 30570 net.cpp:434] relu3 <- conv3
I1216 16:59:25.535008 30570 net.cpp:395] relu3 -> conv3 (in-place)
I1216 16:59:25.535477 30570 net.cpp:150] Setting up relu3
I1216 16:59:25.535488 30570 net.cpp:157] Top shape: 64 384 13 13 (4153344)
I1216 16:59:25.535493 30570 net.cpp:165] Memory required for data: 468147712
I1216 16:59:25.535498 30570 layer_factory.hpp:77] Creating layer conv4
I1216 16:59:25.535511 30570 net.cpp:100] Creating Layer conv4
I1216 16:59:25.535516 30570 net.cpp:434] conv4 <- conv3
I1216 16:59:25.535526 30570 net.cpp:408] conv4 -> conv4
I1216 16:59:25.549878 30570 net.cpp:150] Setting up conv4
I1216 16:59:25.549942 30570 net.cpp:157] Top shape: 64 384 13 13 (4153344)
I1216 16:59:25.549950 30570 net.cpp:165] Memory required for data: 484761088
I1216 16:59:25.549968 30570 layer_factory.hpp:77] Creating layer relu4
I1216 16:59:25.549988 30570 net.cpp:100] Creating Layer relu4
I1216 16:59:25.549998 30570 net.cpp:434] relu4 <- conv4
I1216 16:59:25.550010 30570 net.cpp:395] relu4 -> conv4 (in-place)
I1216 16:59:25.550570 30570 net.cpp:150] Setting up relu4
I1216 16:59:25.550583 30570 net.cpp:157] Top shape: 64 384 13 13 (4153344)
I1216 16:59:25.550588 30570 net.cpp:165] Memory required for data: 501374464
I1216 16:59:25.550593 30570 layer_factory.hpp:77] Creating layer conv5
I1216 16:59:25.550609 30570 net.cpp:100] Creating Layer conv5
I1216 16:59:25.550616 30570 net.cpp:434] conv5 <- conv4
I1216 16:59:25.550624 30570 net.cpp:408] conv5 -> conv5
I1216 16:59:25.579851 30570 net.cpp:150] Setting up conv5
I1216 16:59:25.579883 30570 net.cpp:157] Top shape: 64 256 13 13 (2768896)
I1216 16:59:25.579896 30570 net.cpp:165] Memory required for data: 512450048
I1216 16:59:25.579918 30570 layer_factory.hpp:77] Creating layer relu5
I1216 16:59:25.579937 30570 net.cpp:100] Creating Layer relu5
I1216 16:59:25.579949 30570 net.cpp:434] relu5 <- conv5
I1216 16:59:25.579960 30570 net.cpp:395] relu5 -> conv5 (in-place)
I1216 16:59:25.580512 30570 net.cpp:150] Setting up relu5
I1216 16:59:25.580529 30570 net.cpp:157] Top shape: 64 256 13 13 (2768896)
I1216 16:59:25.580536 30570 net.cpp:165] Memory required for data: 523525632
I1216 16:59:25.580544 30570 layer_factory.hpp:77] Creating layer pool5
I1216 16:59:25.580559 30570 net.cpp:100] Creating Layer pool5
I1216 16:59:25.580574 30570 net.cpp:434] pool5 <- conv5
I1216 16:59:25.580585 30570 net.cpp:408] pool5 -> pool5
I1216 16:59:25.580706 30570 net.cpp:150] Setting up pool5
I1216 16:59:25.580826 30570 net.cpp:157] Top shape: 64 256 6 6 (589824)
I1216 16:59:25.580868 30570 net.cpp:165] Memory required for data: 525884928
I1216 16:59:25.580955 30570 layer_factory.hpp:77] Creating layer fc6
I1216 16:59:25.580991 30570 net.cpp:100] Creating Layer fc6
I1216 16:59:25.581040 30570 net.cpp:434] fc6 <- pool5
I1216 16:59:25.581053 30570 net.cpp:408] fc6 -> fc6
I1216 16:59:25.909590 30570 net.cpp:150] Setting up fc6
I1216 16:59:25.909616 30570 net.cpp:157] Top shape: 64 4096 (262144)
I1216 16:59:25.909622 30570 net.cpp:165] Memory required for data: 526933504
I1216 16:59:25.909634 30570 layer_factory.hpp:77] Creating layer relu6
I1216 16:59:25.909646 30570 net.cpp:100] Creating Layer relu6
I1216 16:59:25.909651 30570 net.cpp:434] relu6 <- fc6
I1216 16:59:25.909662 30570 net.cpp:395] relu6 -> fc6 (in-place)
I1216 16:59:25.910204 30570 net.cpp:150] Setting up relu6
I1216 16:59:25.910217 30570 net.cpp:157] Top shape: 64 4096 (262144)
I1216 16:59:25.910221 30570 net.cpp:165] Memory required for data: 527982080
I1216 16:59:25.910226 30570 layer_factory.hpp:77] Creating layer drop6
I1216 16:59:25.910234 30570 net.cpp:100] Creating Layer drop6
I1216 16:59:25.910239 30570 net.cpp:434] drop6 <- fc6
I1216 16:59:25.910246 30570 net.cpp:395] drop6 -> fc6 (in-place)
I1216 16:59:25.910272 30570 net.cpp:150] Setting up drop6
I1216 16:59:25.910279 30570 net.cpp:157] Top shape: 64 4096 (262144)
I1216 16:59:25.910284 30570 net.cpp:165] Memory required for data: 529030656
I1216 16:59:25.910287 30570 layer_factory.hpp:77] Creating layer fc7
I1216 16:59:25.910295 30570 net.cpp:100] Creating Layer fc7
I1216 16:59:25.910300 30570 net.cpp:434] fc7 <- fc6
I1216 16:59:25.910306 30570 net.cpp:408] fc7 -> fc7
I1216 16:59:26.047479 30570 net.cpp:150] Setting up fc7
I1216 16:59:26.047509 30570 net.cpp:157] Top shape: 64 4096 (262144)
I1216 16:59:26.047514 30570 net.cpp:165] Memory required for data: 530079232
I1216 16:59:26.047525 30570 layer_factory.hpp:77] Creating layer relu7
I1216 16:59:26.047536 30570 net.cpp:100] Creating Layer relu7
I1216 16:59:26.047542 30570 net.cpp:434] relu7 <- fc7
I1216 16:59:26.047550 30570 net.cpp:395] relu7 -> fc7 (in-place)
I1216 16:59:26.047920 30570 net.cpp:150] Setting up relu7
I1216 16:59:26.047930 30570 net.cpp:157] Top shape: 64 4096 (262144)
I1216 16:59:26.047935 30570 net.cpp:165] Memory required for data: 531127808
I1216 16:59:26.047940 30570 layer_factory.hpp:77] Creating layer drop7
I1216 16:59:26.047947 30570 net.cpp:100] Creating Layer drop7
I1216 16:59:26.047952 30570 net.cpp:434] drop7 <- fc7
I1216 16:59:26.047958 30570 net.cpp:395] drop7 -> fc7 (in-place)
I1216 16:59:26.047981 30570 net.cpp:150] Setting up drop7
I1216 16:59:26.047988 30570 net.cpp:157] Top shape: 64 4096 (262144)
I1216 16:59:26.047992 30570 net.cpp:165] Memory required for data: 532176384
I1216 16:59:26.047997 30570 layer_factory.hpp:77] Creating layer fc8
I1216 16:59:26.048004 30570 net.cpp:100] Creating Layer fc8
I1216 16:59:26.048008 30570 net.cpp:434] fc8 <- fc7
I1216 16:59:26.048015 30570 net.cpp:408] fc8 -> fc8
I1216 16:59:26.048148 30570 net.cpp:150] Setting up fc8
I1216 16:59:26.048156 30570 net.cpp:157] Top shape: 64 2 (128)
I1216 16:59:26.048161 30570 net.cpp:165] Memory required for data: 532176896
I1216 16:59:26.048166 30570 layer_factory.hpp:77] Creating layer fc8_fc8_0_split
I1216 16:59:26.048172 30570 net.cpp:100] Creating Layer fc8_fc8_0_split
I1216 16:59:26.048177 30570 net.cpp:434] fc8_fc8_0_split <- fc8
I1216 16:59:26.048183 30570 net.cpp:408] fc8_fc8_0_split -> fc8_fc8_0_split_0
I1216 16:59:26.048190 30570 net.cpp:408] fc8_fc8_0_split -> fc8_fc8_0_split_1
I1216 16:59:26.048218 30570 net.cpp:150] Setting up fc8_fc8_0_split
I1216 16:59:26.048223 30570 net.cpp:157] Top shape: 64 2 (128)
I1216 16:59:26.048228 30570 net.cpp:157] Top shape: 64 2 (128)
I1216 16:59:26.048230 30570 net.cpp:165] Memory required for data: 532177920
I1216 16:59:26.048234 30570 layer_factory.hpp:77] Creating layer accuracy
I1216 16:59:26.048241 30570 net.cpp:100] Creating Layer accuracy
I1216 16:59:26.048245 30570 net.cpp:434] accuracy <- fc8_fc8_0_split_0
I1216 16:59:26.048251 30570 net.cpp:434] accuracy <- label_data_1_split_0
I1216 16:59:26.048279 30570 net.cpp:408] accuracy -> accuracy
…
