…
I1217 11:03:34.836022 18170 net.cpp:322] The NetState phase (0) differed from the phase (1) specified by a rule in layer accuracy
I1217 11:03:34.836143 18170 net.cpp:58] Initializing net from parameters: 
name: "AlexNet"
state {
  phase: TRAIN
  level: 0
  stage: ""
}
layer {
  name: "data"
  type: "Data"
  top: "data"
  top: "label"
  include {
    phase: TRAIN
  }
  transform_param {
    mirror: true
    crop_size: 227
    mean_file: "/home/little_prince/SSD_disk/caffe_practise/Data/train_alex.binaryproto"
  }
  data_param {
    source: "./Data/train_lmdb_alex"
    batch_size: 64
    backend: LMDB
  }
}
layer {
  name: "conv1"
  type: "Convolution"
  bottom: "data"
  top: "conv1"
  param {
    lr_mult: 1
    decay_mult: 1
  }
  param {
    lr_mult: 2
    decay_mult: 0
  }
  convolution_param {
    num_output: 96
    kernel_size: 11
    stride: 4
    weight_filler {
      type: "gaussian"
      std: 0.01
    }
    bias_filler {
      type: "constant"
      value: 0
    }
  }
}
layer {
  name: "relu1"
  type: "ReLU"
  bottom: "conv1"
  top: "conv1"
}
layer {
  name: "norm1"
  type: "LRN"
  bottom: "conv1"
  top: "norm1"
  lrn_param {
    local_size: 5
    alpha: 0.0001
    beta: 0.75
  }
}
layer {
  name: "pool1"
  type: "Pooling"
  bottom: "norm1"
  top: "pool1"
  pooling_param {
    pool: MAX
    kernel_size: 3
    stride: 2
  }
}
layer {
  name: "conv2"
  type: "Convolution"
  bottom: "pool1"
  top: "conv2"
  param {
    lr_mult: 1
    decay_mult: 1
  }
  param {
    lr_mult: 2
    decay_mult: 0
  }
  convolution_param {
    num_output: 256
    pad: 2
    kernel_size: 5
    group: 2
    weight_filler {
      type: "gaussian"
      std: 0.01
    }
    bias_filler {
      type: "constant"
      value: 0.1
    }
  }
}
layer {
  name: "relu2"
  type: "ReLU"
  bottom: "conv2"
  top: "conv2"
}
layer {
  name: "norm2"
  type: "LRN"
  bottom: "conv2"
  top: "norm2"
  lrn_param {
    local_size: 5
    alpha: 0.0001
    beta: 0.75
  }
}
layer {
  name: "pool2"
  type: "Pooling"
  bottom: "norm2"
  top: "pool2"
  pooling_param {
    pool: MAX
    kernel_size: 3
    stride: 2
  }
}
layer {
  name: "conv3"
  type: "Convolution"
  bottom: "pool2"
  top: "conv3"
  param {
    lr_mult: 1
    decay_mult: 1
  }
  param {
    lr_mult: 2
    decay_mult: 0
  }
  convolution_param {
    num_output: 384
    pad: 1
    kernel_size: 3
    weight_filler {
      type: "gaussian"
      std: 0.01
    }
    bias_filler {
      type: "constant"
      value: 0
    }
  }
}
layer {
  name: "relu3"
  type: "ReLU"
  bottom: "conv3"
  top: "conv3"
}
layer {
  name: "conv4"
  type: "Convolution"
  bottom: "conv3"
  top: "conv4"
  param {
    lr_mult: 1
    decay_mult: 1
  }
  param {
    lr_mult: 2
    decay_mult: 0
  }
  convolution_param {
    num_output: 384
    pad: 1
    kernel_size: 3
    group: 2
    weight_filler {
      type: "gaussian"
      std: 0.01
    }
    bias_filler {
      type: "constant"
      value: 0.1
    }
  }
}
layer {
  name: "relu4"
  type: "ReLU"
  bottom: "conv4"
  top: "conv4"
}
layer {
  name: "conv5"
  type: "Convolution"
  bottom: "conv4"
  top: "conv5"
  param {
    lr_mult: 1
    decay_mult: 1
  }
  param {
    lr_mult: 2
    decay_mult: 0
  }
  convolution_param {
    num_output: 256
    pad: 1
    kernel_size: 3
    group: 2
    weight_filler {
      type: "gaussian"
      std: 0.01
    }
    bias_filler {
      type: "constant"
      value: 0.1
    }
  }
}
layer {
  name: "relu5"
  type: "ReLU"
  bottom: "conv5"
  top: "conv5"
}
layer {
  name: "pool5"
  type: "Pooling"
  bottom: "conv5"
  top: "pool5"
  pooling_param {
    pool: MAX
    kernel_size: 3
    stride: 2
  }
}
layer {
  name: "fc6"
  type: "InnerProduct"
  bottom: "pool5"
  top: "fc6"
  param {
    lr_mult: 1
    decay_mult: 1
  }
  param {
    lr_mult: 2
    decay_mult: 0
  }
  inner_product_param {
    num_output: 4096
    weight_filler {
      type: "gaussian"
      std: 0.005
    }
    bias_filler {
      type: "constant"
      value: 0.1
    }
  }
}
layer {
  name: "relu6"
  type: "ReLU"
  bottom: "fc6"
  top: "fc6"
}
layer {
  name: "drop6"
  type: "Dropout"
  bottom: "fc6"
  top: "fc6"
  dropout_param {
    dropout_ratio: 0.5
  }
}
layer {
  name: "fc7"
  type: "InnerProduct"
  bottom: "fc6"
  top: "fc7"
  param {
    lr_mult: 1
    decay_mult: 1
  }
  param {
    lr_mult: 2
    decay_mult: 0
  }
  inner_product_param {
    num_output: 4096
    weight_filler {
      type: "gaussian"
      std: 0.005
    }
    bias_filler {
      type: "constant"
      value: 0.1
    }
  }
}
layer {
  name: "relu7"
  type: "ReLU"
  bottom: "fc7"
  top: "fc7"
}
layer {
  name: "drop7"
  type: "Dropout"
  bottom: "fc7"
  top: "fc7"
  dropout_param {
    dropout_ratio: 0.5
  }
}
layer {
  name: "fc8"
  type: "InnerProduct"
  bottom: "fc7"
  top: "fc8"
  param {
    lr_mult: 1
    decay_mult: 1
  }
  param {
    lr_mult: 2
    decay_mult: 0
  }
  inner_product_param {
    num_output: 2
    weight_filler {
      type: "gaussian"
      std: 0.01
    }
    bias_filler {
      type: "constant"
      value: 0
    }
  }
}
layer {
  name: "loss"
  type: "SoftmaxWithLoss"
  bottom: "fc8"
  bottom: "label"
  top: "loss"
}
I1217 11:03:34.836410 18170 layer_factory.hpp:77] Creating layer data
I1217 11:03:34.851784 18170 net.cpp:100] Creating Layer data
I1217 11:03:34.851799 18170 net.cpp:408] data -> data
I1217 11:03:34.851824 18170 net.cpp:408] data -> label
I1217 11:03:34.851837 18170 data_transformer.cpp:27] Loading mean file from: /home/little_prince/SSD_disk/caffe_practise/Data/train_alex.binaryproto
I1217 11:03:34.867954 18182 db_lmdb.cpp:35] Opened lmdb ./Data/train_lmdb_alex
I1217 11:03:34.881661 18170 data_layer.cpp:41] output data size: 64,3,227,227
I1217 11:03:34.951438 18170 net.cpp:150] Setting up data
I1217 11:03:34.951478 18170 net.cpp:157] Top shape: 64 3 227 227 (9893568)
I1217 11:03:34.951484 18170 net.cpp:157] Top shape: 64 (64)
I1217 11:03:34.951489 18170 net.cpp:165] Memory required for data: 39574528
I1217 11:03:34.951500 18170 layer_factory.hpp:77] Creating layer conv1
I1217 11:03:34.951525 18170 net.cpp:100] Creating Layer conv1
I1217 11:03:34.951532 18170 net.cpp:434] conv1 <- data
I1217 11:03:34.951547 18170 net.cpp:408] conv1 -> conv1
I1217 11:03:38.819595 18170 net.cpp:150] Setting up conv1
I1217 11:03:38.819620 18170 net.cpp:157] Top shape: 64 96 55 55 (18585600)
I1217 11:03:38.819625 18170 net.cpp:165] Memory required for data: 113916928
I1217 11:03:38.819645 18170 layer_factory.hpp:77] Creating layer relu1
I1217 11:03:38.819656 18170 net.cpp:100] Creating Layer relu1
I1217 11:03:38.819663 18170 net.cpp:434] relu1 <- conv1
I1217 11:03:38.819669 18170 net.cpp:395] relu1 -> conv1 (in-place)
I1217 11:03:38.820036 18170 net.cpp:150] Setting up relu1
I1217 11:03:38.820049 18170 net.cpp:157] Top shape: 64 96 55 55 (18585600)
I1217 11:03:38.820051 18170 net.cpp:165] Memory required for data: 188259328
I1217 11:03:38.820055 18170 layer_factory.hpp:77] Creating layer norm1
I1217 11:03:38.820065 18170 net.cpp:100] Creating Layer norm1
I1217 11:03:38.820068 18170 net.cpp:434] norm1 <- conv1
I1217 11:03:38.820073 18170 net.cpp:408] norm1 -> norm1
I1217 11:03:38.820413 18170 net.cpp:150] Setting up norm1
I1217 11:03:38.820422 18170 net.cpp:157] Top shape: 64 96 55 55 (18585600)
I1217 11:03:38.820426 18170 net.cpp:165] Memory required for data: 262601728
I1217 11:03:38.820430 18170 layer_factory.hpp:77] Creating layer pool1
I1217 11:03:38.820436 18170 net.cpp:100] Creating Layer pool1
I1217 11:03:38.820459 18170 net.cpp:434] pool1 <- norm1
I1217 11:03:38.820464 18170 net.cpp:408] pool1 -> pool1
I1217 11:03:38.820497 18170 net.cpp:150] Setting up pool1
I1217 11:03:38.820502 18170 net.cpp:157] Top shape: 64 96 27 27 (4478976)
I1217 11:03:38.820506 18170 net.cpp:165] Memory required for data: 280517632
I1217 11:03:38.820509 18170 layer_factory.hpp:77] Creating layer conv2
I1217 11:03:38.820518 18170 net.cpp:100] Creating Layer conv2
I1217 11:03:38.820521 18170 net.cpp:434] conv2 <- pool1
I1217 11:03:38.820526 18170 net.cpp:408] conv2 -> conv2
I1217 11:03:38.825836 18170 net.cpp:150] Setting up conv2
I1217 11:03:38.825856 18170 net.cpp:157] Top shape: 64 256 27 27 (11943936)
I1217 11:03:38.825860 18170 net.cpp:165] Memory required for data: 328293376
I1217 11:03:38.825871 18170 layer_factory.hpp:77] Creating layer relu2
I1217 11:03:38.825881 18170 net.cpp:100] Creating Layer relu2
I1217 11:03:38.825886 18170 net.cpp:434] relu2 <- conv2
I1217 11:03:38.825891 18170 net.cpp:395] relu2 -> conv2 (in-place)
I1217 11:03:38.826295 18170 net.cpp:150] Setting up relu2
I1217 11:03:38.826305 18170 net.cpp:157] Top shape: 64 256 27 27 (11943936)
I1217 11:03:38.826308 18170 net.cpp:165] Memory required for data: 376069120
I1217 11:03:38.826313 18170 layer_factory.hpp:77] Creating layer norm2
I1217 11:03:38.826319 18170 net.cpp:100] Creating Layer norm2
I1217 11:03:38.826323 18170 net.cpp:434] norm2 <- conv2
I1217 11:03:38.826328 18170 net.cpp:408] norm2 -> norm2
I1217 11:03:38.826648 18170 net.cpp:150] Setting up norm2
I1217 11:03:38.826659 18170 net.cpp:157] Top shape: 64 256 27 27 (11943936)
I1217 11:03:38.826663 18170 net.cpp:165] Memory required for data: 423844864
I1217 11:03:38.826666 18170 layer_factory.hpp:77] Creating layer pool2
I1217 11:03:38.826673 18170 net.cpp:100] Creating Layer pool2
I1217 11:03:38.826676 18170 net.cpp:434] pool2 <- norm2
I1217 11:03:38.826683 18170 net.cpp:408] pool2 -> pool2
I1217 11:03:38.826733 18170 net.cpp:150] Setting up pool2
I1217 11:03:38.826745 18170 net.cpp:157] Top shape: 64 256 13 13 (2768896)
I1217 11:03:38.826752 18170 net.cpp:165] Memory required for data: 434920448
I1217 11:03:38.826758 18170 layer_factory.hpp:77] Creating layer conv3
I1217 11:03:38.826771 18170 net.cpp:100] Creating Layer conv3
I1217 11:03:38.826776 18170 net.cpp:434] conv3 <- pool2
I1217 11:03:38.826782 18170 net.cpp:408] conv3 -> conv3
I1217 11:03:38.836205 18170 net.cpp:150] Setting up conv3
I1217 11:03:38.836236 18170 net.cpp:157] Top shape: 64 384 13 13 (4153344)
I1217 11:03:38.836238 18170 net.cpp:165] Memory required for data: 451533824
I1217 11:03:38.836251 18170 layer_factory.hpp:77] Creating layer relu3
I1217 11:03:38.836262 18170 net.cpp:100] Creating Layer relu3
I1217 11:03:38.836266 18170 net.cpp:434] relu3 <- conv3
I1217 11:03:38.836272 18170 net.cpp:395] relu3 -> conv3 (in-place)
I1217 11:03:38.836632 18170 net.cpp:150] Setting up relu3
I1217 11:03:38.836640 18170 net.cpp:157] Top shape: 64 384 13 13 (4153344)
I1217 11:03:38.836643 18170 net.cpp:165] Memory required for data: 468147200
I1217 11:03:38.836647 18170 layer_factory.hpp:77] Creating layer conv4
I1217 11:03:38.836659 18170 net.cpp:100] Creating Layer conv4
I1217 11:03:38.836663 18170 net.cpp:434] conv4 <- conv3
I1217 11:03:38.836670 18170 net.cpp:408] conv4 -> conv4
I1217 11:03:38.846889 18170 net.cpp:150] Setting up conv4
I1217 11:03:38.846925 18170 net.cpp:157] Top shape: 64 384 13 13 (4153344)
I1217 11:03:38.846933 18170 net.cpp:165] Memory required for data: 484760576
I1217 11:03:38.846946 18170 layer_factory.hpp:77] Creating layer relu4
I1217 11:03:38.846958 18170 net.cpp:100] Creating Layer relu4
I1217 11:03:38.846966 18170 net.cpp:434] relu4 <- conv4
I1217 11:03:38.846977 18170 net.cpp:395] relu4 -> conv4 (in-place)
I1217 11:03:38.847419 18170 net.cpp:150] Setting up relu4
I1217 11:03:38.847437 18170 net.cpp:157] Top shape: 64 384 13 13 (4153344)
I1217 11:03:38.847445 18170 net.cpp:165] Memory required for data: 501373952
I1217 11:03:38.847451 18170 layer_factory.hpp:77] Creating layer conv5
I1217 11:03:38.847466 18170 net.cpp:100] Creating Layer conv5
I1217 11:03:38.847498 18170 net.cpp:434] conv5 <- conv4
I1217 11:03:38.847509 18170 net.cpp:408] conv5 -> conv5
I1217 11:03:38.856503 18170 net.cpp:150] Setting up conv5
I1217 11:03:38.856559 18170 net.cpp:157] Top shape: 64 256 13 13 (2768896)
I1217 11:03:38.856567 18170 net.cpp:165] Memory required for data: 512449536
I1217 11:03:38.856585 18170 layer_factory.hpp:77] Creating layer relu5
I1217 11:03:38.856598 18170 net.cpp:100] Creating Layer relu5
I1217 11:03:38.856606 18170 net.cpp:434] relu5 <- conv5
I1217 11:03:38.856613 18170 net.cpp:395] relu5 -> conv5 (in-place)
I1217 11:03:38.857062 18170 net.cpp:150] Setting up relu5
I1217 11:03:38.857074 18170 net.cpp:157] Top shape: 64 256 13 13 (2768896)
I1217 11:03:38.857079 18170 net.cpp:165] Memory required for data: 523525120
I1217 11:03:38.857084 18170 layer_factory.hpp:77] Creating layer pool5
I1217 11:03:38.857091 18170 net.cpp:100] Creating Layer pool5
I1217 11:03:38.857096 18170 net.cpp:434] pool5 <- conv5
I1217 11:03:38.857105 18170 net.cpp:408] pool5 -> pool5
I1217 11:03:38.857142 18170 net.cpp:150] Setting up pool5
I1217 11:03:38.857151 18170 net.cpp:157] Top shape: 64 256 6 6 (589824)
I1217 11:03:38.857154 18170 net.cpp:165] Memory required for data: 525884416
I1217 11:03:38.857158 18170 layer_factory.hpp:77] Creating layer fc6
I1217 11:03:38.857172 18170 net.cpp:100] Creating Layer fc6
I1217 11:03:38.857177 18170 net.cpp:434] fc6 <- pool5
I1217 11:03:38.857183 18170 net.cpp:408] fc6 -> fc6
I1217 11:03:39.178153 18170 net.cpp:150] Setting up fc6
I1217 11:03:39.178179 18170 net.cpp:157] Top shape: 64 4096 (262144)
I1217 11:03:39.178184 18170 net.cpp:165] Memory required for data: 526932992
I1217 11:03:39.178194 18170 layer_factory.hpp:77] Creating layer relu6
I1217 11:03:39.178205 18170 net.cpp:100] Creating Layer relu6
I1217 11:03:39.178210 18170 net.cpp:434] relu6 <- fc6
I1217 11:03:39.178218 18170 net.cpp:395] relu6 -> fc6 (in-place)
I1217 11:03:39.178728 18170 net.cpp:150] Setting up relu6
I1217 11:03:39.178740 18170 net.cpp:157] Top shape: 64 4096 (262144)
I1217 11:03:39.178745 18170 net.cpp:165] Memory required for data: 527981568
I1217 11:03:39.178748 18170 layer_factory.hpp:77] Creating layer drop6
I1217 11:03:39.178756 18170 net.cpp:100] Creating Layer drop6
I1217 11:03:39.178761 18170 net.cpp:434] drop6 <- fc6
I1217 11:03:39.178766 18170 net.cpp:395] drop6 -> fc6 (in-place)
I1217 11:03:39.178791 18170 net.cpp:150] Setting up drop6
I1217 11:03:39.178797 18170 net.cpp:157] Top shape: 64 4096 (262144)
I1217 11:03:39.178802 18170 net.cpp:165] Memory required for data: 529030144
I1217 11:03:39.178805 18170 layer_factory.hpp:77] Creating layer fc7
I1217 11:03:39.178813 18170 net.cpp:100] Creating Layer fc7
I1217 11:03:39.178817 18170 net.cpp:434] fc7 <- fc6
I1217 11:03:39.178823 18170 net.cpp:408] fc7 -> fc7
I1217 11:03:39.315717 18170 net.cpp:150] Setting up fc7
I1217 11:03:39.315747 18170 net.cpp:157] Top shape: 64 4096 (262144)
I1217 11:03:39.315752 18170 net.cpp:165] Memory required for data: 530078720
I1217 11:03:39.315762 18170 layer_factory.hpp:77] Creating layer relu7
I1217 11:03:39.315770 18170 net.cpp:100] Creating Layer relu7
I1217 11:03:39.315775 18170 net.cpp:434] relu7 <- fc7
I1217 11:03:39.315785 18170 net.cpp:395] relu7 -> fc7 (in-place)
I1217 11:03:39.316319 18170 net.cpp:150] Setting up relu7
I1217 11:03:39.316331 18170 net.cpp:157] Top shape: 64 4096 (262144)
I1217 11:03:39.316336 18170 net.cpp:165] Memory required for data: 531127296
I1217 11:03:39.316341 18170 layer_factory.hpp:77] Creating layer drop7
I1217 11:03:39.316350 18170 net.cpp:100] Creating Layer drop7
I1217 11:03:39.316354 18170 net.cpp:434] drop7 <- fc7
I1217 11:03:39.316361 18170 net.cpp:395] drop7 -> fc7 (in-place)
I1217 11:03:39.316383 18170 net.cpp:150] Setting up drop7
I1217 11:03:39.316388 18170 net.cpp:157] Top shape: 64 4096 (262144)
I1217 11:03:39.316392 18170 net.cpp:165] Memory required for data: 532175872
I1217 11:03:39.316396 18170 layer_factory.hpp:77] Creating layer fc8
I1217 11:03:39.316406 18170 net.cpp:100] Creating Layer fc8
I1217 11:03:39.316431 18170 net.cpp:434] fc8 <- fc7
I1217 11:03:39.316439 18170 net.cpp:408] fc8 -> fc8
I1217 11:03:39.316570 18170 net.cpp:150] Setting up fc8
I1217 11:03:39.316576 18170 net.cpp:157] Top shape: 64 2 (128)
I1217 11:03:39.316581 18170 net.cpp:165] Memory required for data: 532176384
I1217 11:03:39.316587 18170 layer_factory.hpp:77] Creating layer loss
I1217 11:03:39.316596 18170 net.cpp:100] Creating Layer loss
I1217 11:03:39.316601 18170 net.cpp:434] loss <- fc8
I1217 11:03:39.316606 18170 net.cpp:434] loss <- label
I1217 11:03:39.316612 18170 net.cpp:408] loss -> loss
I1217 11:03:39.316625 18170 layer_factory.hpp:77] Creating layer loss
…
I1217 11:03:39.317458 18170 solver.cpp:196] Creating test net (#0) specified by net file: ./models/bvlc_alexnet/train_val.prototxt
I1217 11:03:39.317484 18170 net.cpp:322] The NetState phase (1) differed from the phase (0) specified by a rule in layer data
I1217 11:03:39.317610 18170 net.cpp:58] Initializing net from parameters: 
name: "AlexNet"
state {
  phase: TEST
}
layer {
  name: "data"
  type: "Data"
  top: "data"
  top: "label"
  include {
    phase: TEST
  }
  transform_param {
    mirror: false
    crop_size: 227
    mean_value: 104
    mean_value: 117
    mean_value: 123
  }
  data_param {
    source: "./Data/val_lmdb_alex"
    batch_size: 64
    backend: LMDB
  }
}
layer {
  name: "conv1"
  type: "Convolution"
  bottom: "data"
  top: "conv1"
  param {
    lr_mult: 1
    decay_mult: 1
  }
  param {
    lr_mult: 2
    decay_mult: 0
  }
  convolution_param {
    num_output: 96
    kernel_size: 11
    stride: 4
    weight_filler {
      type: "gaussian"
      std: 0.01
    }
    bias_filler {
      type: "constant"
      value: 0
    }
  }
}
layer {
  name: "relu1"
  type: "ReLU"
  bottom: "conv1"
  top: "conv1"
}
layer {
  name: "norm1"
  type: "LRN"
  bottom: "conv1"
  top: "norm1"
  lrn_param {
    local_size: 5
    alpha: 0.0001
    beta: 0.75
  }
}
layer {
  name: "pool1"
  type: "Pooling"
  bottom: "norm1"
  top: "pool1"
  pooling_param {
    pool: MAX
    kernel_size: 3
    stride: 2
  }
}
layer {
  name: "conv2"
  type: "Convolution"
  bottom: "pool1"
  top: "conv2"
  param {
    lr_mult: 1
    decay_mult: 1
  }
  param {
    lr_mult: 2
    decay_mult: 0
  }
  convolution_param {
    num_output: 256
    pad: 2
    kernel_size: 5
    group: 2
    weight_filler {
      type: "gaussian"
      std: 0.01
    }
    bias_filler {
      type: "constant"
      value: 0.1
    }
  }
}
layer {
  name: "relu2"
  type: "ReLU"
  bottom: "conv2"
  top: "conv2"
}
layer {
  name: "norm2"
  type: "LRN"
  bottom: "conv2"
  top: "norm2"
  lrn_param {
    local_size: 5
    alpha: 0.0001
    beta: 0.75
  }
}
layer {
  name: "pool2"
  type: "Pooling"
  bottom: "norm2"
  top: "pool2"
  pooling_param {
    pool: MAX
    kernel_size: 3
    stride: 2
  }
}
layer {
  name: "conv3"
  type: "Convolution"
  bottom: "pool2"
  top: "conv3"
  param {
    lr_mult: 1
    decay_mult: 1
  }
  param {
    lr_mult: 2
    decay_mult: 0
  }
  convolution_param {
    num_output: 384
    pad: 1
    kernel_size: 3
    weight_filler {
      type: "gaussian"
      std: 0.01
    }
    bias_filler {
      type: "constant"
      value: 0
    }
  }
}
layer {
  name: "relu3"
  type: "ReLU"
  bottom: "conv3"
  top: "conv3"
}
layer {
  name: "conv4"
  type: "Convolution"
  bottom: "conv3"
  top: "conv4"
  param {
    lr_mult: 1
    decay_mult: 1
  }
  param {
    lr_mult: 2
    decay_mult: 0
  }
  convolution_param {
    num_output: 384
    pad: 1
    kernel_size: 3
    group: 2
    weight_filler {
      type: "gaussian"
      std: 0.01
    }
    bias_filler {
      type: "constant"
      value: 0.1
    }
  }
}
layer {
  name: "relu4"
  type: "ReLU"
  bottom: "conv4"
  top: "conv4"
}
layer {
  name: "conv5"
  type: "Convolution"
  bottom: "conv4"
  top: "conv5"
  param {
    lr_mult: 1
    decay_mult: 1
  }
  param {
    lr_mult: 2
    decay_mult: 0
  }
  convolution_param {
    num_output: 256
    pad: 1
    kernel_size: 3
    group: 2
    weight_filler {
      type: "gaussian"
      std: 0.01
    }
    bias_filler {
      type: "constant"
      value: 0.1
    }
  }
}
layer {
  name: "relu5"
  type: "ReLU"
  bottom: "conv5"
  top: "conv5"
}
layer {
  name: "pool5"
  type: "Pooling"
  bottom: "conv5"
  top: "pool5"
  pooling_param {
    pool: MAX
    kernel_size: 3
    stride: 2
  }
}
layer {
  name: "fc6"
  type: "InnerProduct"
  bottom: "pool5"
  top: "fc6"
  param {
    lr_mult: 1
    decay_mult: 1
  }
  param {
    lr_mult: 2
    decay_mult: 0
  }
  inner_product_param {
    num_output: 4096
    weight_filler {
      type: "gaussian"
      std: 0.005
    }
    bias_filler {
      type: "constant"
      value: 0.1
    }
  }
}
layer {
  name: "relu6"
  type: "ReLU"
  bottom: "fc6"
  top: "fc6"
}
layer {
  name: "drop6"
  type: "Dropout"
  bottom: "fc6"
  top: "fc6"
  dropout_param {
    dropout_ratio: 0.5
  }
}
layer {
  name: "fc7"
  type: "InnerProduct"
  bottom: "fc6"
  top: "fc7"
  param {
    lr_mult: 1
    decay_mult: 1
  }
  param {
    lr_mult: 2
    decay_mult: 0
  }
  inner_product_param {
    num_output: 4096
    weight_filler {
      type: "gaussian"
      std: 0.005
    }
    bias_filler {
      type: "constant"
      value: 0.1
    }
  }
}
layer {
  name: "relu7"
  type: "ReLU"
  bottom: "fc7"
  top: "fc7"
}
layer {
  name: "drop7"
  type: "Dropout"
  bottom: "fc7"
  top: "fc7"
  dropout_param {
    dropout_ratio: 0.5
  }
}
layer {
  name: "fc8"
  type: "InnerProduct"
  bottom: "fc7"
  top: "fc8"
  param {
    lr_mult: 1
    decay_mult: 1
  }
  param {
    lr_mult: 2
    decay_mult: 0
  }
  inner_product_param {
    num_output: 2
    weight_filler {
      type: "gaussian"
      std: 0.01
    }
    bias_filler {
      type: "constant"
      value: 0
    }
  }
}
layer {
  name: "accuracy"
  type: "Accuracy"
  bottom: "fc8"
  bottom: "label"
  top: "accuracy"
  include {
    phase: TEST
  }
}
layer {
  name: "loss"
  type: "SoftmaxWithLoss"
  bottom: "fc8"
  bottom: "label"
  top: "loss"
}
I1217 11:03:39.317905 18170 layer_factory.hpp:77] Creating layer data
I1217 11:03:39.317979 18170 net.cpp:100] Creating Layer data
I1217 11:03:39.317988 18170 net.cpp:408] data -> data
I1217 11:03:39.317996 18170 net.cpp:408] data -> label
I1217 11:03:39.335580 18199 db_lmdb.cpp:35] Opened lmdb ./Data/val_lmdb_alex
I1217 11:03:39.337283 18170 data_layer.cpp:41] output data size: 64,3,227,227
I1217 11:03:39.406370 18170 net.cpp:150] Setting up data
I1217 11:03:39.406404 18170 net.cpp:157] Top shape: 64 3 227 227 (9893568)
I1217 11:03:39.406410 18170 net.cpp:157] Top shape: 64 (64)
I1217 11:03:39.406414 18170 net.cpp:165] Memory required for data: 39574528
I1217 11:03:39.406424 18170 layer_factory.hpp:77] Creating layer label_data_1_split
I1217 11:03:39.406440 18170 net.cpp:100] Creating Layer label_data_1_split
I1217 11:03:39.406446 18170 net.cpp:434] label_data_1_split <- label
I1217 11:03:39.406453 18170 net.cpp:408] label_data_1_split -> label_data_1_split_0
I1217 11:03:39.406466 18170 net.cpp:408] label_data_1_split -> label_data_1_split_1
I1217 11:03:39.406540 18170 net.cpp:150] Setting up label_data_1_split
I1217 11:03:39.406548 18170 net.cpp:157] Top shape: 64 (64)
I1217 11:03:39.406551 18170 net.cpp:157] Top shape: 64 (64)
I1217 11:03:39.406556 18170 net.cpp:165] Memory required for data: 39575040
I1217 11:03:39.406561 18170 layer_factory.hpp:77] Creating layer conv1
I1217 11:03:39.406574 18170 net.cpp:100] Creating Layer conv1
I1217 11:03:39.406579 18170 net.cpp:434] conv1 <- data
I1217 11:03:39.406587 18170 net.cpp:408] conv1 -> conv1
I1217 11:03:39.411700 18170 net.cpp:150] Setting up conv1
I1217 11:03:39.411726 18170 net.cpp:157] Top shape: 64 96 55 55 (18585600)
I1217 11:03:39.411731 18170 net.cpp:165] Memory required for data: 113917440
I1217 11:03:39.411746 18170 layer_factory.hpp:77] Creating layer relu1
I1217 11:03:39.411759 18170 net.cpp:100] Creating Layer relu1
I1217 11:03:39.411765 18170 net.cpp:434] relu1 <- conv1
I1217 11:03:39.411773 18170 net.cpp:395] relu1 -> conv1 (in-place)
I1217 11:03:39.412231 18170 net.cpp:150] Setting up relu1
I1217 11:03:39.412250 18170 net.cpp:157] Top shape: 64 96 55 55 (18585600)
I1217 11:03:39.412254 18170 net.cpp:165] Memory required for data: 188259840
I1217 11:03:39.412261 18170 layer_factory.hpp:77] Creating layer norm1
I1217 11:03:39.412271 18170 net.cpp:100] Creating Layer norm1
I1217 11:03:39.412276 18170 net.cpp:434] norm1 <- conv1
I1217 11:03:39.412286 18170 net.cpp:408] norm1 -> norm1
I1217 11:03:39.412761 18170 net.cpp:150] Setting up norm1
I1217 11:03:39.412775 18170 net.cpp:157] Top shape: 64 96 55 55 (18585600)
I1217 11:03:39.412778 18170 net.cpp:165] Memory required for data: 262602240
I1217 11:03:39.412782 18170 layer_factory.hpp:77] Creating layer pool1
I1217 11:03:39.412788 18170 net.cpp:100] Creating Layer pool1
I1217 11:03:39.412793 18170 net.cpp:434] pool1 <- norm1
I1217 11:03:39.412799 18170 net.cpp:408] pool1 -> pool1
I1217 11:03:39.412827 18170 net.cpp:150] Setting up pool1
I1217 11:03:39.412834 18170 net.cpp:157] Top shape: 64 96 27 27 (4478976)
I1217 11:03:39.412838 18170 net.cpp:165] Memory required for data: 280518144
I1217 11:03:39.412842 18170 layer_factory.hpp:77] Creating layer conv2
I1217 11:03:39.412853 18170 net.cpp:100] Creating Layer conv2
I1217 11:03:39.412856 18170 net.cpp:434] conv2 <- pool1
I1217 11:03:39.412863 18170 net.cpp:408] conv2 -> conv2
I1217 11:03:39.430075 18170 net.cpp:150] Setting up conv2
I1217 11:03:39.430233 18170 net.cpp:157] Top shape: 64 256 27 27 (11943936)
I1217 11:03:39.430244 18170 net.cpp:165] Memory required for data: 328293888
I1217 11:03:39.430335 18170 layer_factory.hpp:77] Creating layer relu2
I1217 11:03:39.430385 18170 net.cpp:100] Creating Layer relu2
I1217 11:03:39.430433 18170 net.cpp:434] relu2 <- conv2
I1217 11:03:39.430480 18170 net.cpp:395] relu2 -> conv2 (in-place)
I1217 11:03:39.431064 18170 net.cpp:150] Setting up relu2
I1217 11:03:39.431169 18170 net.cpp:157] Top shape: 64 256 27 27 (11943936)
I1217 11:03:39.431234 18170 net.cpp:165] Memory required for data: 376069632
I1217 11:03:39.431332 18170 layer_factory.hpp:77] Creating layer norm2
I1217 11:03:39.431421 18170 net.cpp:100] Creating Layer norm2
I1217 11:03:39.431490 18170 net.cpp:434] norm2 <- conv2
I1217 11:03:39.431577 18170 net.cpp:408] norm2 -> norm2
I1217 11:03:39.432063 18170 net.cpp:150] Setting up norm2
I1217 11:03:39.432500 18170 net.cpp:157] Top shape: 64 256 27 27 (11943936)
I1217 11:03:39.432526 18170 net.cpp:165] Memory required for data: 423845376
I1217 11:03:39.433122 18170 layer_factory.hpp:77] Creating layer pool2
I1217 11:03:39.433171 18170 net.cpp:100] Creating Layer pool2
I1217 11:03:39.433202 18170 net.cpp:434] pool2 <- norm2
I1217 11:03:39.433234 18170 net.cpp:408] pool2 -> pool2
I1217 11:03:39.433316 18170 net.cpp:150] Setting up pool2
I1217 11:03:39.433346 18170 net.cpp:157] Top shape: 64 256 13 13 (2768896)
I1217 11:03:39.433377 18170 net.cpp:165] Memory required for data: 434920960
I1217 11:03:39.433396 18170 layer_factory.hpp:77] Creating layer conv3
I1217 11:03:39.433429 18170 net.cpp:100] Creating Layer conv3
I1217 11:03:39.433560 18170 net.cpp:434] conv3 <- pool2
I1217 11:03:39.433650 18170 net.cpp:408] conv3 -> conv3
I1217 11:03:39.453059 18170 net.cpp:150] Setting up conv3
I1217 11:03:39.454432 18170 net.cpp:157] Top shape: 64 384 13 13 (4153344)
I1217 11:03:39.454499 18170 net.cpp:165] Memory required for data: 451534336
I1217 11:03:39.454756 18170 layer_factory.hpp:77] Creating layer relu3
I1217 11:03:39.454958 18170 net.cpp:100] Creating Layer relu3
I1217 11:03:39.455009 18170 net.cpp:434] relu3 <- conv3
I1217 11:03:39.455221 18170 net.cpp:395] relu3 -> conv3 (in-place)
I1217 11:03:39.456362 18170 net.cpp:150] Setting up relu3
I1217 11:03:39.456832 18170 net.cpp:157] Top shape: 64 384 13 13 (4153344)
I1217 11:03:39.456888 18170 net.cpp:165] Memory required for data: 468147712
I1217 11:03:39.457113 18170 layer_factory.hpp:77] Creating layer conv4
I1217 11:03:39.457309 18170 net.cpp:100] Creating Layer conv4
I1217 11:03:39.457367 18170 net.cpp:434] conv4 <- conv3
I1217 11:03:39.457554 18170 net.cpp:408] conv4 -> conv4
I1217 11:03:39.491911 18170 net.cpp:150] Setting up conv4
I1217 11:03:39.492069 18170 net.cpp:157] Top shape: 64 384 13 13 (4153344)
I1217 11:03:39.492117 18170 net.cpp:165] Memory required for data: 484761088
I1217 11:03:39.492172 18170 layer_factory.hpp:77] Creating layer relu4
I1217 11:03:39.492228 18170 net.cpp:100] Creating Layer relu4
I1217 11:03:39.492276 18170 net.cpp:434] relu4 <- conv4
I1217 11:03:39.492324 18170 net.cpp:395] relu4 -> conv4 (in-place)
I1217 11:03:39.492799 18170 net.cpp:150] Setting up relu4
I1217 11:03:39.492859 18170 net.cpp:157] Top shape: 64 384 13 13 (4153344)
I1217 11:03:39.492907 18170 net.cpp:165] Memory required for data: 501374464
I1217 11:03:39.492952 18170 layer_factory.hpp:77] Creating layer conv5
I1217 11:03:39.493006 18170 net.cpp:100] Creating Layer conv5
I1217 11:03:39.493053 18170 net.cpp:434] conv5 <- conv4
I1217 11:03:39.493103 18170 net.cpp:408] conv5 -> conv5
I1217 11:03:39.502604 18170 net.cpp:150] Setting up conv5
I1217 11:03:39.508678 18170 net.cpp:157] Top shape: 64 256 13 13 (2768896)
I1217 11:03:39.508795 18170 net.cpp:165] Memory required for data: 512450048
I1217 11:03:39.508864 18170 layer_factory.hpp:77] Creating layer relu5
I1217 11:03:39.508920 18170 net.cpp:100] Creating Layer relu5
I1217 11:03:39.508970 18170 net.cpp:434] relu5 <- conv5
I1217 11:03:39.509018 18170 net.cpp:395] relu5 -> conv5 (in-place)
I1217 11:03:39.509929 18170 net.cpp:150] Setting up relu5
I1217 11:03:39.510015 18170 net.cpp:157] Top shape: 64 256 13 13 (2768896)
I1217 11:03:39.510061 18170 net.cpp:165] Memory required for data: 523525632
I1217 11:03:39.510107 18170 layer_factory.hpp:77] Creating layer pool5
I1217 11:03:39.510164 18170 net.cpp:100] Creating Layer pool5
I1217 11:03:39.510216 18170 net.cpp:434] pool5 <- conv5
I1217 11:03:39.510265 18170 net.cpp:408] pool5 -> pool5
I1217 11:03:39.510375 18170 net.cpp:150] Setting up pool5
I1217 11:03:39.510432 18170 net.cpp:157] Top shape: 64 256 6 6 (589824)
I1217 11:03:39.510481 18170 net.cpp:165] Memory required for data: 525884928
I1217 11:03:39.510566 18170 layer_factory.hpp:77] Creating layer fc6
I1217 11:03:39.510620 18170 net.cpp:100] Creating Layer fc6
I1217 11:03:39.510669 18170 net.cpp:434] fc6 <- pool5
I1217 11:03:39.510738 18170 net.cpp:408] fc6 -> fc6
I1217 11:03:39.848506 18170 net.cpp:150] Setting up fc6
I1217 11:03:39.848534 18170 net.cpp:157] Top shape: 64 4096 (262144)
I1217 11:03:39.848541 18170 net.cpp:165] Memory required for data: 526933504
I1217 11:03:39.848552 18170 layer_factory.hpp:77] Creating layer relu6
I1217 11:03:39.848567 18170 net.cpp:100] Creating Layer relu6
I1217 11:03:39.848573 18170 net.cpp:434] relu6 <- fc6
I1217 11:03:39.848582 18170 net.cpp:395] relu6 -> fc6 (in-place)
I1217 11:03:39.849136 18170 net.cpp:150] Setting up relu6
I1217 11:03:39.849153 18170 net.cpp:157] Top shape: 64 4096 (262144)
I1217 11:03:39.849157 18170 net.cpp:165] Memory required for data: 527982080
I1217 11:03:39.849162 18170 layer_factory.hpp:77] Creating layer drop6
I1217 11:03:39.849170 18170 net.cpp:100] Creating Layer drop6
I1217 11:03:39.849175 18170 net.cpp:434] drop6 <- fc6
I1217 11:03:39.849180 18170 net.cpp:395] drop6 -> fc6 (in-place)
I1217 11:03:39.849205 18170 net.cpp:150] Setting up drop6
I1217 11:03:39.849211 18170 net.cpp:157] Top shape: 64 4096 (262144)
I1217 11:03:39.849215 18170 net.cpp:165] Memory required for data: 529030656
I1217 11:03:39.849220 18170 layer_factory.hpp:77] Creating layer fc7
I1217 11:03:39.849228 18170 net.cpp:100] Creating Layer fc7
I1217 11:03:39.849232 18170 net.cpp:434] fc7 <- fc6
I1217 11:03:39.849237 18170 net.cpp:408] fc7 -> fc7
I1217 11:03:39.994019 18170 net.cpp:150] Setting up fc7
I1217 11:03:39.994050 18170 net.cpp:157] Top shape: 64 4096 (262144)
I1217 11:03:39.994053 18170 net.cpp:165] Memory required for data: 530079232
I1217 11:03:39.994065 18170 layer_factory.hpp:77] Creating layer relu7
I1217 11:03:39.994076 18170 net.cpp:100] Creating Layer relu7
I1217 11:03:39.994082 18170 net.cpp:434] relu7 <- fc7
I1217 11:03:39.994091 18170 net.cpp:395] relu7 -> fc7 (in-place)
I1217 11:03:39.994464 18170 net.cpp:150] Setting up relu7
I1217 11:03:39.994473 18170 net.cpp:157] Top shape: 64 4096 (262144)
I1217 11:03:39.994478 18170 net.cpp:165] Memory required for data: 531127808
I1217 11:03:39.994482 18170 layer_factory.hpp:77] Creating layer drop7
I1217 11:03:39.994489 18170 net.cpp:100] Creating Layer drop7
I1217 11:03:39.994494 18170 net.cpp:434] drop7 <- fc7
I1217 11:03:39.994501 18170 net.cpp:395] drop7 -> fc7 (in-place)
I1217 11:03:39.994522 18170 net.cpp:150] Setting up drop7
I1217 11:03:39.994530 18170 net.cpp:157] Top shape: 64 4096 (262144)
I1217 11:03:39.994534 18170 net.cpp:165] Memory required for data: 532176384
I1217 11:03:39.994539 18170 layer_factory.hpp:77] Creating layer fc8
I1217 11:03:39.994546 18170 net.cpp:100] Creating Layer fc8
I1217 11:03:39.994551 18170 net.cpp:434] fc8 <- fc7
I1217 11:03:39.994558 18170 net.cpp:408] fc8 -> fc8
I1217 11:03:39.994690 18170 net.cpp:150] Setting up fc8
I1217 11:03:39.994701 18170 net.cpp:157] Top shape: 64 2 (128)
I1217 11:03:39.994706 18170 net.cpp:165] Memory required for data: 532176896
I1217 11:03:39.994712 18170 layer_factory.hpp:77] Creating layer fc8_fc8_0_split
I1217 11:03:39.994720 18170 net.cpp:100] Creating Layer fc8_fc8_0_split
I1217 11:03:39.994724 18170 net.cpp:434] fc8_fc8_0_split <- fc8
I1217 11:03:39.994729 18170 net.cpp:408] fc8_fc8_0_split -> fc8_fc8_0_split_0
I1217 11:03:39.994738 18170 net.cpp:408] fc8_fc8_0_split -> fc8_fc8_0_split_1
I1217 11:03:39.994763 18170 net.cpp:150] Setting up fc8_fc8_0_split
I1217 11:03:39.994769 18170 net.cpp:157] Top shape: 64 2 (128)
I1217 11:03:39.994773 18170 net.cpp:157] Top shape: 64 2 (128)
I1217 11:03:39.994776 18170 net.cpp:165] Memory required for data: 532177920
I1217 11:03:39.994781 18170 layer_factory.hpp:77] Creating layer accuracy
I1217 11:03:39.994789 18170 net.cpp:100] Creating Layer accuracy
I1217 11:03:39.994793 18170 net.cpp:434] accuracy <- fc8_fc8_0_split_0
I1217 11:03:39.994799 18170 net.cpp:434] accuracy <- label_data_1_split_0
I1217 11:03:39.994837 18170 net.cpp:408] accuracy -> accuracy
…
